AutoML/ag-20250930_130252/models/NeuralNetFastAI_r156_BAG_L1/S1F1/model-internals.pkl (torch, 76582 bytes, 10 tensors)

weight f4 [20]
00000000: 01c9 803f 289d 7a3f ac40 7e3f 436b 803f
00000010: ffaf 7f3f 837d 803f 6e61 813f 5a12 813f
00000020: 3fb4 7d3f 84e3 813f 160e 763f 3537 813f
00000030: 36e2 823f 1706 7d3f 589c 7d3f 337f 833f
00000040: 2617 803f bdb9 803f e74d 7e3f 486a 7b3f
1.0061342 0.9789605 0.9931743 1.0032734 0.99877924 1.0038303 1.0107858 1.0083725
0.9910316 1.0147557 0.96115243 1.0094973 1.0225284 0.9883742 0.99066687 1.0273193
1.0007064 1.0056683 0.9933762 0.9820905

bias f4 [20]
00000000: 1cd4 023c 794c b7bb 0b12 263c 4fb2 1bbc
00000010: 4a62 383b 027e 1ebb bc18 1db9 2688 dc3c
00000020: fac8 603c 66c4 51bc 12f2 8c3c 361e 023d
00000030: f2d6 d93b 817f 43ba 4788 79bc bedd 9bbc
00000040: 9838 c63c 8c0e 9bbc 85d1 25bd c96b b93c
0.007985141 -0.005593833 0.010136138 -0.009502961 0.0028134757 -0.0024183993 -0.00014981901 0.02692039
0.013719792 -0.012803173 0.017205272 0.031767093 0.006647938 -0.0007457659 -0.015230245 -0.019026633
0.024196908 -0.018927835 -0.040483017 0.022634404

running_mean f4 [20]
00000000: e469 db39 c4b0 da3c 42d9 4a3c 075b 96bc
00000010: 7bf5 c4ba ed9b c038 49a8 ebbc 7f7c aa3c
00000020: 395a f03c fee2 973c 3a5c a4b9 bb01 273d
00000030: 5738 763d 4c9a 8abd 1c81 f73c 351c 863c
00000040: 612c 7fbc 2cc0 f63c c485 a6bc b72e e43c
0.0004184983 0.026695617 0.0123809 -0.018353952 -0.0015026772 9.184317e-05 -0.028766768 0.020811317
0.029339897 0.018540855 -0.00031349232 0.040773135 0.060112324 -0.06767711 0.030212931 0.016370872
-0.015574546 0.030120932 -0.020327456 0.027854307

running_var f4 [20]
00000000: 52fa 7a3f 0baa 633f 725e 803f 301b 7d3f
00000010: 3016 703f 493f 833f 8aa8 813f e798 823f
00000020: c720 8c3f f3ce 7c3f ca2a 863f c1d2 813f
00000030: c4d3 853f 3c3a 823f 37dd 6a3f 05b1 833f
00000040: dbdb 843f fe27 753f 083a 813f a939 9d3f
0.9803821 0.8893134 1.0028822 0.9886961 0.93783855 1.0253688 1.0129559 1.0202912
1.0947503 0.9875328 1.0481808 1.0142442 1.0455251 1.0174022 0.917438 1.0288397
1.0379595 0.9576415 1.0095835 1.2283221

weight f4 [400, 20]
00000000: 3a3a f2ba 7f2e 023e d040 52be 94ec 13be
00000010: 6ed0 d5bd 60a1 0c3d 08f5 0d3c dd3a 2f3e
00000020: 86ed a0bc b100 603d d18f a3bd ef4f 54bd
00000030: 5e3a 51be 34f6 33be e1b4 c8bd 7a2e 75bb
00000040: e8b4 9e3d 9727 fc3d 64dc 20be 128b f9bd
00000050: 1985 953d 6c23 2a3e 4a14 12bd 7e4a 293e
00000060: 1617 0abd 4fad 123d 4039 3c3e 5645 66be
00000070: 43ee d7bd 4dbc b1bd cde7 b4bd d48f 5b3e
00000080: 2e2f 69be c577 5dbd 3091 1dbe 048c 4bbe
00000090: 0af8 1cbe 5397 463e 5bb6 a83d 047a c73d
000000a0: 39c7 903b 8b3d edbd 70a7 7e3c 83b9 44be
000000b0: c036 2abe f89f 00be 9417 263e 0d27 0b3e
000000c0: fd93 c6bd 2c91 3cbc 5e7c 113e 0480 483e
000000d0: 92ea b83d 39a4 083d 9df4 223e daa7 23be
000000e0: 8039 203d 74dd 21be dbe8 2abe 18a0 11be
000000f0: d3ae f43d e34a 9e3d 955c f6bd f358 4a3d
00000100: b74d 113e 2613 2cbc 2498 a7bb a826 2f3d
00000110: 6277 283e 3164 4f3e 9e17 1fbe d1bd 98bd
00000120: c36e a43d 86aa 3f3e e3ae 4b3e cb88 613e
00000130: 22ce ad3c 90a9 2dbe e28f b7ba e7fc 1ebe
00000140: 1dbb 5bbe d70e 4f3e 9895 193e eabc 54be
00000150: 54ae 0e3d 5ec7 4abd 6de5 55bc 2d57 d5bd
00000160: e49d ab3d 1d2b 0dbe cb1a 943d 5a36 a83d
00000170: 2322 1e3e fdd7 b73d a541 78be 1651 2bbe
00000180: be66 003e f49c 7c3d 238d 34be fc9f c2bd
00000190: 587d 573e e236 273e 0340 d2bd e6d7 5fbd
000001a0: 0fb4 60be d318 53bc 1f14 27be b086 19be
000001b0: 29d9 9abc 45a2 3b3d 9979 c1bd 8d13 fa3d
000001c0: 9238 d4bd 8d96 453e 3d7e 2b3e 1e0c 47be
000001d0: ff4d 1dbd bd07 963b 9ae8 c93c 500d 423d
000001e0: d976 a63d eb8c 9eba 050c cfbd 7383 dd3d
000001f0: 8fc6 5ebe 6ad0 ecbd 477c 90bd 1cff edbd
00000200: d4d8 2cbd 1f1c 55be 4029 b2bc 858c 8d3d
00000210: 7fc2 62be f432 dfbb e48d 2e3e 9a0b 89bc
00000220: 4652 9abc 058f cc3a e557 5f3c 65a5 033e
00000230: bf1d 603e fc20 0c3e fe4a 603e 20c9 b7bc
00000240: 8c07 48be ce38 c7bd 1711 173e a75a 653c
00000250: 1987 00be 7bbf 28be c625 45be 1c70 42be
00000260: 3e02 dbbc 7d28 013e 6847 003e e2bc 57be
00000270: abb6 133e cad3 46be b1f9 02bd 8f13 adbd
00000280: 7238 2cbd e6ff 66bd 0306 5cbe 2d24 38be
00000290: 18c4 0abd 8a7b 9eba 1838 aebd 9d40 8a3d
000002a0: e04e 42be 67ba 08bd 479a 513e 5406 cbbd
000002b0: a7b9 3b3e fc3c cf3d ead5 69be d05b 143e
000002c0: cc27 66bd 199d cfbd a048 353e 1939 2ebe
000002d0: 2e87 d43c 06fd 42bd 3542 203e 0bad 823d
000002e0: 233f dc3d 60d0 9e3d f052 40bd f263 3abd
000002f0: 8bdd 3dbe adc2 023e abaa 373e 3b00 273e
00000300: c5c8 2ebe 65d1 e03c b74c 22be 730d ecbd
00000310: 0285 16be 8215 463d f271 04be 5ad5 963a
00000320: c0b4 ce37 83fd 0a3e 670e 34be 9e56 15be
00000330: b83a 06be 01b9 1a3e d097 8bbd e86c 473e
00000340: 1e2d 5c3d 9610 123d 169f d03a a848 57bd
00000350: a4eb 5c3d d040 3fbd dcef 513c 25d6 033d
00000360: 70e9 3abe f417 efbd 8ee7 433e 6689 3ebe
00000370: 6e57 fbbc 54fe 683e 1fe1 913d ac9d ab3c
00000380: c87e 50be 26bf d83d c0fc 1abe 82a4 82bd
00000390: 94e3 a6bd 5f75 32bd 198b 41bc 6ff3 3a3e
000003a0: e83f c03b db0e 533e 8a97 fb3d c9bd 0ebe
000003b0: c889 a13d e1e7 30be 0620 babd 662c 9f3d
000003c0: f562 573d 047e 1c3e afd5 9abd e304 0b3c
000003d0: 7070 f03d d4e8 65be 8e73 373e 4751 25be
000003e0: 091f 44bc 9d65 48bb 8ac2 c2bd df5d 343d
000003f0: 234f 5f3e 9502 5dbd 534b 07be aeff b4bd
-0.0018480488 0.1271305 -0.20532537 -0.14445716 -0.104401454 0.034333587 0.008664377 0.17112298
-0.01964451 0.05468816 -0.07986415 -0.051834043 -0.20432422 -0.17574388 -0.09800125 -0.0037411735
0.07749349 0.12312239 -0.15709072 -0.12184729 0.07300777 0.16615075 -0.03566388 0.16532323
-0.033713423 0.03580981 0.18381214 -0.22487387 -0.10543492 -0.08678494 -0.08833275 0.21441585
-0.22771904 -0.0540693 -0.15387416 -0.1987763 -0.15328994 0.19393663 0.082379065 0.097400695
0.0044182804 -0.11584004 0.01554285 -0.19211392 -0.16622448 -0.12561023 0.16219932 0.13589115
-0.09696195 -0.011509221 0.14207599 0.19580084 0.09029116 0.03335974 0.15913625 -0.15981999
0.039117336 -0.15807134 -0.1669039 -0.14221227 0.119474076 0.07729127 -0.12029377 0.049401235
0.14189802 -0.010502612 -0.005114572 0.042761475 0.16451791 0.20253064 -0.15536353 -0.074580796
0.080289386 0.18717393 0.19890933 0.22024839 0.021216456 -0.16959214 -0.0014004672 -0.15526162
-0.21458097 0.20220505 0.14998472 -0.2077519 0.03483422 -0.049506538 -0.013055188 -0.10417018
0.083797246 -0.13785978 0.07231673 0.08213492 0.1544271 0.08976743 -0.24243791 -0.1673015
0.12539193 0.06167312 -0.17631964 -0.09503171 0.21043909 0.1632953 -0.102661155 -0.054649256
-0.21943687 -0.0128843365 -0.1631627 -0.14992785 -0.018902378 0.04580905 -0.09447021 0.1221076
-0.103623524 0.19295712 0.16747375 -0.19438216 -0.03840446 0.004578559 0.024647046 0.047375977
0.08128137 -0.001209644 -0.101097144 0.108160876 -0.21755432 -0.11563189 -0.07054954 -0.11620924
-0.04219897 -0.20811509 -0.021748185 0.069115676 -0.22144507 -0.006811494 0.17046314 -0.016729165
-0.01883806 0.0015606588 0.0136317955 0.12856062 0.21886347 0.13684458 0.21903607 -0.022434771
-0.19534129 -0.097276315 0.14752613 0.013998664 -0.12551536 -0.16479294 -0.1925269 -0.18988079
-0.026734468 0.12613101 0.1252724 -0.21068147 0.14425151 -0.19416729 -0.031976406 -0.08450996
-0.042046018 -0.056396388 -0.21486668 -0.1798255 -0.033878416 -0.0012091261 -0.08506793 0.06750605
-0.18975401 -0.033380892 0.20469008 -0.09913316 0.1833254 0.10119054 -0.22835508 0.14488149
-0.056190297 -0.10137386 0.17703485 -0.17013969 0.025943365 -0.047604583 0.15650256 0.063806616
0.1075423 0.07754588 -0.046954095 -0.04550547 -0.18541543 0.12769575 0.17936198 0.16308682
-0.17068775 0.027443597 -0.15849577 -0.11526003 -0.14699176 0.048360355 -0.12934092 0.0011507676
2.4641282e-05 0.1357327 -0.17583619 -0.14583823 -0.13108337 0.15109636 -0.06816065 0.19475138
0.053753965 0.03566035 0.0015916552 -0.052559525 0.053935662 -0.04669267 0.012813535 0.032186646
-0.18253112 -0.116744906 0.191313 -0.18607101 -0.030681338 0.22753268 0.071230166 0.020949207
-0.20360863 0.10583334 -0.15135479 -0.063790336 -0.08148876 -0.043568965 -0.011812949 0.18256925
0.005866993 0.20611136 0.12284763 -0.13939585 0.07887608 -0.17275955 -0.09088139 0.0777214
0.052584607 0.15282446 -0.07560288 0.008485052 0.11740196 -0.22452098 0.17915174 -0.16144286
-0.01197029 -0.0030578144 -0.09509762 0.044034835 0.21807532 -0.05395754 -0.13212328 -0.088378295

weight f4 [400]
00000000: c66b 7b3f f3ab 783f 065e 7b3f 3b9b 7b3f
00000010: 43bf 7c3f 933e 783f 1778 733f fb10 7c3f
00000020: c46e 783f 2947 803f 2738 7f3f 5e3a 7c3f
00000030: 1728 7f3f 3f44 7b3f 125e 793f 0ba9 7b3f
00000040: b6bc 793f 2c1b 773f 7330 7f3f 892a 753f
00000050: 4993 7b3f 16a1 7a3f 0aa3 7d3f 7993 7c3f
00000060: d3e2 793f ae65 773f f1dd 7e3f 343f 7c3f
00000070: 03e6 803f a27b 7c3f b312 7e3f 77e2 7a3f
00000080: d635 7a3f ab68 7a3f 0c10 7d3f 4218 7e3f
00000090: a5cc 7b3f 724a 7e3f ce82 793f 1b07 7b3f
000000a0: 4a61 7b3f abed 7a3f 9aef 7e3f 45fb 793f
000000b0: 1ce0 803f 426e 803f 46d1 7b3f d71d 823f
000000c0: e83a 7d3f 19a7 7c3f 7da3 7c3f f53b 813f
000000d0: 219b 7a3f d124 803f 6615 7d3f 4e91 813f
000000e0: 3522 833f 2c8b 7d3f a32b 713f b692 7b3f
000000f0: a950 753f 978f 7c3f ab0b 763f 7088 783f
00000100: acac 7c3f 83e9 7c3f 1755 7c3f 7ebd 7f3f
00000110: 8735 7c3f e836 7e3f 05a0 7e3f ceb4 7e3f
00000120: 96a1 743f a7c2 7a3f 8b4b 7b3f 3382 7b3f
00000130: 2d1a 7b3f bcc6 7c3f fcb6 7c3f a860 773f
00000140: 7e6d 7e3f 028b 803f a38d 7c3f f410 7a3f
00000150: 1c36 7c3f 948d 7b3f 7d00 7d3f b13d 7f3f
00000160: 95d9 7a3f d6ea 7b3f 1b70 7b3f 404b 7a3f
00000170: 5dc0 7d3f a95b 7a3f 2fb2 7f3f a971 7e3f
00000180: 01eb 7a3f c466 7f3f bb69 823f cd1e 803f
00000190: b2f5 7c3f 6050 7b3f fe4e 7d3f a9b6 7b3f
000001a0: 2b9b 773f b8a6 7c3f c370 7b3f 1be4 7a3f
000001b0: 78c1 803f 4014 7d3f 5b59 7a3f 282b 6e3f
000001c0: bf63 733f ffcb 7d3f b0d7 7a3f 32d1 7e3f
000001d0: 5ef4 7a3f 44db 773f 1159 7c3f df98 7c3f
000001e0: 8adb 7b3f 51ee 7d3f dab7 793f 874d 7b3f
000001f0: 0a3f 7d3f 2004 7a3f 4403 803f 44d4 7c3f
00000200: 5ebd 7b3f 140e 7b3f c40a 783f 31ec 7f3f
00000210: 3308 7c3f 10bb 7a3f 2e03 7a3f 2b24 7f3f
00000220: ddcd 803f 060f 803f 9ab8 7c3f 5071 7b3f
00000230: ff6b 7a3f a67b 783f d635 7a3f eedd 803f
00000240: b147 7b3f f665 7e3f ac85 783f e3d8 7a3f
00000250: 67d1 7b3f 2feb 7d3f 9b93 773f 1d47 7a3f
00000260: 4c07 7d3f fbd0 7e3f 835f 7d3f dcf1 7d3f
00000270: 8341 7b3f 4824 7b3f 669e 783f 6f31 7a3f
00000280: 6398 783f 7f24 7d3f 27f8 733f 7969 7b3f
00000290: e656 7f3f e6cd 7e3f 1253 763f 65ac 743f
000002a0: 80cb 7e3f d404 7f3f eca9 713f 8fb1 7c3f
000002b0: 5952 7a3f c877 7b3f 3845 7c3f 30ee 7a3f
000002c0: f148 7d3f 4f0b 7d3f 84fb 803f 9b0c 7f3f
000002d0: 2fb1 813f ae29 813f 3804 803f 04f5 7d3f
000002e0: 5067 793f 4e89 7f3f a30a 723f 0c6a 803f
000002f0: 7ae5 7b3f 18c9 7c3f 3adf 7d3f 22c9 733f
00000300: 9cf4 743f d275 7e3f 22ad 753f e476 7d3f
00000310: a4db 793f 2987 7b3f 3e60 783f 78c7 7b3f
00000320: 5c90 7c3f ab78 7c3f 02f4 7d3f 1582 7c3f
00000330: 4587 803f dc09 7c3f 35b9 753f 689d 793f
00000340: 6f36 7b3f 454f 7e3f 4fee 7a3f a6cf 7a3f
00000350: b564 7a3f 1427 763f 184d 813f 8d5b 7c3f
00000360: acbc 743f 637e 7f3f e6d9 7d3f fcb4 803f
00000370: a678 7d3f 09c5 7b3f cb47 7e3f 1b52 773f
00000380: b04e 7d3f 100c 7a3f 7605 813f dd06 7c3f
00000390: a9c3 7b3f 539c 753f 8b2e 7c3f d09a 7b3f
000003a0: 8589 783f 125d 753f 550e 7b3f c38a 7b3f
000003b0: 5b0e 7c3f 122c 7e3f 0463 7c3f 3e9d 7f3f
000003c0: cdcb 703f 812c 793f fff0 7b3f 8c35 7b3f
000003d0: 98a0 7a3f 76c6 7d3f ffbc 803f 3c48 813f
000003e0: 54b9 7a3f 82f3 7e3f 2972 7e3f fb6c 7c3f
000003f0: 5296 7d3f b828 7b3f 86fd 7d3f 3c91 7e3f
0.98211324 0.97137374 0.98190343 0.9828374 0.9872934 0.9697048 0.9510512 0.9846341
0.97044015 1.0021716 0.99695057 0.9852656 0.9967055 0.9815101 0.97409165 0.98304814
0.97553575 0.96525836 0.996833 0.9576803 0.98271614 0.9790205 0.990769 0.98662525
0.9761173 0.96639526 0.99557406 0.9853394 1.0070194 0.9862615 0.9924728 0.9800181
0.977384 0.9781596 0.9885261 0.99255764 0.9835914 0.99332345 0.9746522 0.9805772
0.98195326 0.980189 0.9958435 0.9764903 1.0068393 1.0033648 0.983662 1.0165356
0.9891801 0.9869247 0.98686963 1.0096422 0.9789296 1.0011235 0.98860776 1.0122468
1.0244814 0.99040484 0.9420721 0.9827074 0.958262 0.986566 0.96111554 0.9708319
0.98700976 0.9879381 0.98567337 0.9989852 0.98519176 0.9930253 0.9946292 0.99494636
0.9555906 0.97953266 0.98162144 0.98245543 0.98086816 0.98740745 0.9871671 0.9663186
0.9938582 1.0042422 0.9865362 0.9768212 0.98520064 0.98262906 0.9882887 0.9970351
0.97988254 0.98405206 0.98217934 0.9777107 0.9912165 0.9779611 0.9988126 0.9939218
0.9801484 0.9976618 1.0188516 1.00094 0.988124 0.9816952 0.9894866 0.9832559
0.9672114 0.9869189 0.98218936 0.9800431 1.0059042 0.98859024 0.97792596 0.930346
0.95074075 0.991394 0.97985363 0.99537957 0.98029125 0.9681895 0.98573405 0.9867076
0.98381865 0.99191767 0.9754616 0.9816517 0.98924315 0.97662544 1.0000997 0.9876139
0.98335826 0.98068357 0.9689143 0.99969774 0.9845001 0.97941685 0.976611 0.9966456
1.0062824 1.0004585 0.9871918 0.98219776 0.9782104 0.9706367 0.977384 1.0067728
0.9815627 0.9937433 0.9707897 0.9798719 0.983664 0.99186987 0.96709603 0.9776476
0.9883926 0.9953763 0.98973864 0.99197173 0.9814684 0.98102236 0.97116697 0.9773168
0.97107524 0.98883814 0.95300525 0.98207814 0.9974197 0.99532926 0.96220505 0.95575553
0.99529266 0.9961674 0.94399905 0.9870843 0.977819 0.98229647 0.9854312 0.98019695
0.98939425 0.9884538 1.0076756 0.9962861 1.0132197 1.0090845 1.0001287 0.9920199
0.9742327 0.99818885 0.9454748 1.0032363 0.9839703 0.98744345 0.9916874 0.9522878
0.95685744 0.9939853 0.95967305 0.9900954 0.9760077 0.98253113 0.97021854 0.9835124
0.98657775 0.98621625 0.9920045 0.9863599 1.0041281 0.98452544 0.9598573 0.9750581
0.98129934 0.99339706 0.9801988 0.97973096 0.97809917 0.9615338 1.0101652 0.98577195
0.9560039 0.99802226 0.9916061 1.0055232 0.9901222 0.98347527 0.993283 0.9660966
0.9894819 0.97674656 1.0079792 0.9844797 0.9834543 0.95941657 0.9850852 0.982831
0.9708484 0.9584514 0.98068744 0.9825861 0.98459405 0.99285996 0.98588586 0.9984931
0.94060975 0.9733353 0.98414606 0.9812858 0.97901297 0.9913095 1.0057677 1.0100169
0.9793904 0.99590313 0.99392945 0.9860379 0.99057496 0.98109007 0.9921497 0.9944036

bias f4 [400]
00000000: 8211 133c c136 153b fe15 bcb9 213e d5bb
00000010: e152 dd3a 47be a1bb b934 c2bc 488d ffbb
00000020: d030 ad3c 71bb 5abb 7415 873b 2775 9a3a
00000030: 3607 4b3b e734 093c da66 5fba 854d abbb
00000040: 0e23 c63b ae39 d6bb 25f1 243c 66cf a63c
00000050: 4c1f 81bb 7c5c c13a 6a77 80b9 a896 9e37
00000060: f892 53bb c6d9 223c 880e fbbc 816b 9bba
00000070: 371b 19bc 4427 2cbb 5611 2c39 e6f2 e23b
00000080: 01d3 983c c94e 0d3b 1970 08bb fbfb d2bb
00000090: 48b4 70ba b5b2 263b 2f42 71bc 888c 9f3b
000000a0: fc66 513b 0ad4 973b 85a9 1f3c 2952 0e3b
000000b0: 1cfc 35bc ab71 c93a 0cbb e0ba cd84 853b
000000c0: 24b8 c73b af4a a73b 02e8 6a3a d19e 01bc
000000d0: c71b 853c fa8a 543b 499a 31bb 5857 91bb
000000e0: 0392 d2bb a478 d2b9 4ba8 a3bc 9b67 cd3b
000000f0: 62f7 12ba 3569 923b ed5a 743c b568 43bb
00000100: 82c1 98ba a033 2aba 5cfa d6bb 76a8 313c
00000110: ca51 a53a 3157 5b3a 54ed 853b 83ae 123c
00000120: d44d 5bbc ec2e b63b 5be8 53bb ad2c ddbb
00000130: 3f70 383b 189e c1ba 4b9a ba3a b971 68bd
00000140: 6ca9 123c df0b 1e3b 5e0d a03b 1ba8 5fbc
00000150: 4f46 023b e105 3aba bf32 b23a 6f5e 913c
00000160: 2637 74bb 06d1 51ba ec4f 973b 63af 983b
00000170: 9ddd d1bb f208 933b 2c90 dd3b d7bb 45ba
00000180: 0818 7cbb fb2b 793b dc0f ff3a 0abb 493c
00000190: f21c 653b 9a9e 203c 58b7 91bb c4a5 d83b
000001a0: 80d8 e6ba b158 933a 5edd 083c 979b 56ba
000001b0: 7c96 383c 50a6 0fbb d0ba 3bbb 936b 013d
000001c0: 9254 0e3d 06ea d43b a93d 393b 9a76 8ebb
000001d0: 308f 353a a427 0f3b 4fa9 ceba 129e 1d3c
000001e0: b11b 983b c480 89b9 179f 17bc 69ad e9bb
000001f0: 32f9 073c b967 013c 5245 843b a5d6 99bc
00000200: d68a c0bb 745a 933c 7131 cc3b 04e6 dd3b
00000210: c890 56ba d123 f2ba e969 e2ba af13 3939
00000220: 9082 2c3c bf2e 83bb 7901 2c3c 2f9c 97bb
00000230: e2a8 20bb 1908 11bc 8bab a53b 4d15 6dbb
00000240: b28d a1ba 2d0a 573b cd0c 39bc 1c38 20bc
00000250: 7514 4d3a ae7f f3bb a886 b83a 6572 a1b9
00000260: da02 5dbb 15cc 01bc 50e5 4cba b510 b639
00000270: 508e ad3a c541 9abc a0e7 423c 03b2 6abb
00000280: 4bef 74ba 576f d73b 0ee7 c5bc 22af 5e3c
00000290: d3aa eebb 5e6c 72bb 5dc9 4e3c 1ea1 b63c
000002a0: b713 df3b b857 403c fa25 34bc 1e21 6339
000002b0: e221 b439 c0ed 043c 7bab 7e3b 49d1 9c3c
000002c0: 88ac 19bc 1981 07bc 087b 153b 9e29 d93a
000002d0: 7fb6 f23b 0fae 653c 18ef 043c efd8 3aba
000002e0: 2f34 0bbd cb0d 62bc f876 0e3b 9ad1 933b
000002f0: 1e39 66bc 61e5 1b3c 1c83 fdbb e862 9aba
00000300: 63bd e7bc a663 01b9 6b63 363c e7c6 8a3c
00000310: 1ff6 0a3a 1332 95bb b4eb e6bc 1c16 963b
00000320: a128 0a3c 16e2 b4bb 7d77 1dbb c3d0 033c
00000330: 6cf2 9939 5728 5b39 7c40 593b 449c 39bc
00000340: dc2f 77bb 2624 a7ba 8e9e 123c 9b2c 5b3b
00000350: 76c6 843c a00a 2ebc de74 eb3b 0085 50bb
00000360: 3bd3 27bc 87d6 81bb eb32 27bc c5f8 d6ba
00000370: e547 b23b 5085 e13a 664f 1638 d9c0 f93b
00000380: 9313 573b 8db1 5cbc ba8f e13a b745 83bc
00000390: 06d2 ceba fdb1 fabc a69f d4bb e81f 4b3b
000003a0: 796a 39bb 6f36 3e3d 0682 183b 3ac9 b6bb
000003b0: fda4 72bb 3c63 5f3b 07f7 633b caaf 3cbc
000003c0: 4ba9 fa3c 0910 dd3b 3d44 a63a 2e2c 2eba
000003d0: c3e9 ae3a 8558 be3b e7cb daba 0e61 98bb
000003e0: 50f4 023b a537 5f3b 1e7d 49bb f9a7 d93b
000003f0: 0c94 cd3b 9aa7 233c 790d 3f3a 2ab9 f43b
0.008976342 0.0022768232 -0.0003587454 -0.0065076505 0.0016885662 -0.004936013 -0.02370678 -0.0077988245
0.02114144 -0.0033375884 0.0041224305 0.0011784182 0.003097964 0.008374429 -0.0008522101 -0.005227747
0.0060466593 -0.0065376377 0.010067259 0.020362567 -0.0039404985 0.0014752294 -0.00024503033 1.8905223e-05
-0.0032283645 0.009939617 -0.030646577 -0.00118576 -0.009344867 -0.0026268521 0.00016409656 0.0069259284
0.018655302 0.0021561852 -0.0020818769 -0.00643873 -0.00091821374 0.0025436108 -0.014725252 0.0048690476
0.0031952253 0.0046334313 0.009745006 0.0021716452 -0.011107471 0.0015368959 -0.0017145588 0.004074669
0.0060949493 0.0051053385 0.00089609635 -0.0079114 0.016248597 0.003243147 -0.0027100018 -0.004435461
-0.0064260974 -0.00040144206 -0.01997771 0.0062684542 -0.0005606321 0.004468108 0.0149142565 -0.002981705
-0.001165435 -0.0006492678 -0.006560607 0.010843387 0.0012612876 0.00083671795 0.0040871296 0.00895274
-0.013385255 0.0055597927 -0.003233454 -0.0067497105 0.0028143076 -0.0014771847 0.0014236657 -0.05674908
0.008951526 0.0024115962 0.004884406 -0.013650919 0.0019878333 -0.0007096213 0.0013595446 0.017745225
-0.0037264316 -0.0008003864 0.0046176817 0.0046595796 -0.006404592 0.0044871503 0.0067615714 -0.0007542944
-0.0038466472 0.00380206 0.0019459683 0.01231266 0.003495988 0.009803439 -0.004446905 0.0066115577
-0.001761213 0.0011241642 0.008353559 -0.0008186637 0.011266347 -0.0021919198 -0.0028645284 0.03159673
0.03474862 0.0064976243 0.0028265512 -0.0043476345 0.00069259387 0.0021843696 -0.0015767011 0.009620206
0.004641973 -0.00026226614 -0.009254239 -0.007131268 0.008299159 0.007898265 0.004036584 -0.018779108
-0.0058759255 0.017987467 0.00623148 0.0067718048 -0.0008185026 -0.0018473809 -0.0017273995 0.00017650308
0.010529175 -0.0040033753 0.010498398 -0.004626773 -0.0024514725 -0.008852028 0.00505585 -0.0036176026
-0.0012325554 0.0032812462 -0.011294556 -0.0097790025 0.0007823178 -0.007430992 0.0014078217 -0.00030793544
-0.0033723623 -0.007922192 -0.00078161526 0.00034726193 0.0013241265 -0.01883019 0.011896044 -0.003581167
-0.0009343519 0.006574552 -0.024158027 0.01359156 -0.0072835474 -0.0036990861 0.012621251 0.022293624
0.00680777 0.011739664 -0.010995382 0.00021660744 0.0003435752 0.008113325 0.0038859535 0.019142764
-0.009379514 -0.008270525 0.0022808928 0.0016568189 0.007407009 0.01401855 0.008113645 -0.00071276625
-0.033985313 -0.013797234 0.0021738391 0.0045110704 -0.014051704 0.009515137 -0.0077365767 -0.0011778744
-0.028288549 -0.0001233952 0.0111321015 0.016940547 0.0005300957 -0.0045530885 -0.028188564 0.0045802724
0.008432538 -0.0055201156 -0.002402752 0.008045378 0.00029363052 0.00020900495 0.0033150008 -0.011328761
-0.0037717735 -0.0012751862 0.008948935 0.0033443335 0.016207915 -0.01062265 0.0071855625 -0.0031817555
-0.010243232 -0.003962341 -0.010205011 -0.0016401043 0.0054406994 0.0017205868 3.5836732e-05 0.007621866
0.0032818064 -0.013470066 0.0017208972 -0.016024454 -0.0015779145 -0.03060245 -0.006488758 0.003099436
-0.0028292222 0.04643863 0.002327086 -0.0055781873 -0.003702461 0.0034086248 0.003478469 -0.011516521
0.030598303 0.0067462963 0.0012685132 -0.00066441565 0.0013344813 0.005808892 -0.0016692848 -0.0046502417
0.0019982047 0.0034060266 -0.0030744742 0.0066423384 0.006273752 0.00998869 0.00072880794 0.0074683623

running_mean f4 [400]
00000000: 43e4 2e3e 5921 d53e 8b47 663e 8347 503e
00000010: 0f29 533e b82c 153e f015 8f3e f3f9 9e3e
00000020: 7857 fe3d 3d5c 6b3e 3604 e93d 5e63 193e
00000030: dff6 873e 8fcc 5e3e 8afe 053e 60f8 4a3e
00000040: 104f 523e 5a79 483e 6781 9e3e f3ca 073e
00000050: a4ce aa3e 056b 443e d7ca 643e f0cd 6a3e
00000060: 3004 493e 10b0 333e 8874 2f3e 100f 8c3e
00000070: aa5d 273e 5cf3 bf3e ab4b b13e 35fa 623e
00000080: fc5a 8f3e 5cda 9a3e b289 9f3e 1649 9b3e
00000090: c479 6a3e 94b6 0c3e 935c a03e c526 7e3e
000000a0: 98ae 4b3e 7adf 623e 30d6 6f3e 805c 143e
000000b0: e955 6f3e a969 713e f04b bf3e 7f73 433e
000000c0: 54ad 2d3e dafc 9f3e 9b5a c53e ccdd 0a3e
000000d0: e130 6e3e 180f 4f3e 84ea 4c3e 566d 6b3e
000000e0: 342d 623e 614a aa3e b55c 6a3e 0d15 663e
000000f0: e78b ad3e e501 8f3e aa42 9b3e 9b8c c43e
00000100: b458 203e 12c0 263e 9024 4d3e dd78 6d3e
00000110: 8792 4a3e e04a c13e 74e6 683e 2c70 4e3e
00000120: 1cd1 483e 94a5 8d3e bca9 973e 22f7 523e
00000130: 8940 5e3e 51b6 2b3e 1de8 6c3e f519 fa3d
00000140: ba25 093e f997 363e 986a 893e 6b6f 993e
00000150: 1a82 8f3e 3a7e 493e 850a 643e 6e82 803e
00000160: 1c17 3e3e 4476 813e 94ae 453e 8326 913e
00000170: 0dcd 053e 51ef 413e 93b1 283e 2207 6f3e
00000180: a2ac 2f3e e542 583e 5fd6 683e ce6e 0b3e
00000190: f2f4 1f3e 1052 fe3d 6fa8 0b3e d43c 603e
000001a0: ebb7 6a3e 4ba2 1a3e 3868 ae3e 9c70 673e
000001b0: 4307 373e f904 863e bb56 cd3e 3a3d 803e
000001c0: 5661 673e 8b4c 0e3e 3283 363e 5a37 c63e
000001d0: f420 3c3e 35b3 eb3d 8f8d 5b3e e3e4 483e
000001e0: 1544 ff3d f9fb 4f3e 6f77 343e 4a7b 583e
000001f0: c259 ba3e ec52 c03e 6dd2 6f3e a248 673e
00000200: 4003 493e 3f54 883e 529e c73e f7b6 b03e
00000210: 3beb af3e 20a6 203e cc96 393e 6c07 633e
00000220: 9e5d cc3e 87e8 903e 064a 403e 28e2 903e
00000230: 8237 653e 6f98 af3d f3a0 453e 9e2c b73e
00000240: 126a 863e b8fb 3a3e 9165 6a3e 761c 893e
00000250: 0c46 9e3e 3758 953e 7b1a 883e ff39 ee3d
00000260: c822 f43d 6a48 393e c2bc 493e 4b69 043e
00000270: 3233 8c3e 1358 683e 4604 003e bc14 053e
00000280: d580 223e 7dc5 473e 3573 673e ef85 323e
00000290: 17e1 923e d932 8a3e 8845 133e 965b 073e
000002a0: ed91 343e 0f9d d53d cc86 903e dd5c c23e
000002b0: 9b2f 2a3e 8f42 623e b6dc 0e3e 61e0 073e
000002c0: ba1d 6b3e 89dd 633e 31a4 c63e 2406 9f3e
000002d0: 5137 b83e 116f 103e 740a 903e 4a6a a03e
000002e0: 9ea9 343e 6de3 b93e be57 463e 57f7 683e
000002f0: 5938 1a3e 1603 923e d353 303e 0cac 933e
00000300: 08f6 133e 7bea 783e ed0c 2b3e 3ecf f03d
00000310: 8696 9f3e 98dc 3d3e a64b 093e eb55 ad3e
00000320: 9685 053f 7772 933e f97f 733e 3e94 133e
00000330: eb96 553e 29ce 613e 214a 583e 4d76 903e
00000340: 6dde cc3d 2c61 023f 3663 5a3e 7c99 8c3e
00000350: b072 0f3e 18e3 583e 9496 823e 48d7 613e
00000360: aa03 863e 3307 353e b582 803e 0a1e 363e
00000370: 2990 5f3e 25d2 8c3e ba7b c33e 2849 313e
00000380: b39c 7a3e 5913 163e bc3d 033e f27c 6f3e
00000390: c07d 7d3e 82ab 0e3e 75df d33e 4832 343e
000003a0: 503a 243e 4c82 603e 36c2 463e b8c2 143e
000003b0: 6e2c aa3e 8d32 253e e65c 493e f11f 0b3e
000003c0: 112c 563e d9a2 8a3e 80ae a83e a561 aa3e
000003d0: b7e7 2d3e 1976 843e a999 6e3e 24b3 b13e
000003e0: 6ed2 893e d1fa 9d3e c402 003e 3f35 a73e
000003f0: 9a42 6b3e 3f3a 523e 1b3a a43e da79 e43d
0.17079262 0.41627005 0.22488229 0.2033978 0.20621131 0.1456784 0.27946424 0.3105007
0.12419027 0.22984405 0.11377756 0.14979312 0.26555535 0.2175772 0.1308538 0.1982131
0.20537972 0.19577542 0.309581 0.13261013 0.3336078 0.1918145 0.22343002 0.22930121
0.19630504 0.17547631 0.17134297 0.27355242 0.16344324 0.37490356 0.34628043 0.22165759
0.27999103 0.3024472 0.3115974 0.30329198 0.22898012 0.13741523 0.3132063 0.24819477
0.19890821 0.22155562 0.2342155 0.14488411 0.23372616 0.23575462 0.37362623 0.19087027
0.1696065 0.31247598 0.3854569 0.13561171 0.23260833 0.20220602 0.20011336 0.22990927
0.22087556 0.33259872 0.22886927 0.22468968 0.338958 0.27931133 0.30324298 0.38388523
0.15658838 0.16284207 0.20033479 0.23190637 0.19782458 0.37752438 0.22744161 0.20159978
0.19611019 0.2766539 0.29621685 0.20602086 0.21704306 0.16768767 0.23135419 0.12211982
0.13393298 0.1783141 0.26839137 0.29967818 0.28028947 0.19677058 0.22269638 0.2509951
0.18563503 0.25285542 0.19304878 0.28349695 0.13066502 0.18938948 0.16473989 0.23342565
0.17155698 0.21119268 0.22738026 0.13616487 0.15620783 0.12417996 0.13638471 0.21898204
0.22921722 0.15100972 0.34063888 0.22601551 0.17873864 0.2617567 0.40105233 0.25046712
0.22595724 0.13896386 0.17823485 0.38714105 0.18371946 0.115087904 0.21440719 0.19618563
0.124641575 0.20310964 0.17623685 0.21140781 0.36396605 0.37563264 0.23420115 0.22586301
0.19630146 0.26626775 0.38987976 0.3451459 0.34359154 0.15688372 0.1812393 0.221708
0.39915174 0.28302404 0.18778238 0.28297544 0.22384456 0.08573996 0.19299679 0.35776228
0.262528 0.18260086 0.22890307 0.26779526 0.30912817 0.29168865 0.26582703 0.116321556
0.119206965 0.1809403 0.19700912 0.12930791 0.2738281 0.22689848 0.1250163 0.12996191
0.15869458 0.1950893 0.22602542 0.17433904 0.28687355 0.2699192 0.14381993 0.13218531
0.17633791 0.10430347 0.28227842 0.37961474 0.16619723 0.22095703 0.13951382 0.13269188
0.22960559 0.22252478 0.38797143 0.31059372 0.35979703 0.14104868 0.28132975 0.31331092
0.17642829 0.36306325 0.19369408 0.22750603 0.15060557 0.2851798 0.17219476 0.288422
0.14449322 0.24308197 0.1670415 0.11758278 0.31169528 0.18541181 0.13407764 0.33854613
0.5215696 0.28798267 0.23779286 0.14412019 0.20858352 0.220513 0.21122028 0.28215256
0.10003362 0.5092952 0.21326908 0.2746085 0.14008594 0.2118038 0.25505507 0.2205478
0.2617467 0.17678528 0.25099722 0.17784896 0.21832336 0.27504078 0.38180333 0.17313063
0.24473839 0.14655818 0.12816519 0.23387507 0.24755001 0.13932613 0.41381422 0.17597306
0.1603787 0.21924704 0.19410023 0.14527404 0.33237022 0.16132565 0.19664344 0.13586403
0.20915247 0.27077368 0.32945633 0.33277622 0.16982923 0.2587135 0.23300804 0.34706986
0.26918358 0.3085542 0.12501055 0.3265781 0.22974625 0.20530032 0.3207558 0.11156054

running_var f4 [400]
00000000: 76a3 983d 7fe0 a03e 18c7 033e e4d6 d53d
00000010: 0461 903d 5326 1e3d d62a 073e 89ba d23d
00000020: f443 3c3d 2161 e73d a621 0d3d 55f7 6c3d
00000030: f3e0 d83d e177 a23d 5eb3 143d e527 b53d
00000040: e294 b83d 8f96 ea3d 970b 463e cfe2 5e3d
00000050: 7d28 3c3e 2443 9a3d c6e9 e43d b0b2 013e
00000060: e27e a73d 0d2c c63d ad19 a03d 6b94 503e
00000070: 0785 a13d bf93 523e 4e3d 643e 862b 9c3d
00000080: 1e03 943e 80fc 1c3e 1f67 a73e d929 0f3e
00000090: a9b0 ad3d 813d 323d 5161 0c3e fce1 ec3d
000000a0: 88e7 ec3d d60a 983d 4488 9f3d 6c1a 833d
000000b0: dfd6 9b3d d0f1 053e 1005 a13e e807 5f3d
000000c0: 2464 983d 692f 0c3e f898 0d3e 3ca6 3f3d
000000d0: 43f7 8f3d ebcf 953d 061b e03d ca37 bc3d
000000e0: 38c8 983d 82e5 103e aba1 d43d eae9 993d
000000f0: 8227 963e a3ab fc3d eac2 3c3e de8b 643e
00000100: afac 863d 1fac 783d e6ca 613d 2ccf d13d
00000110: a999 703d f8b1 873e 8eb5 e83d f579 bc3d
00000120: 5f5c be3d 71e3 203e fec3 123e 5086 b43d
00000130: f82c e53d 7614 8c3d e83f 1d3e 7eb4 073d
00000140: 6ac1 023d 915b 9f3d 1b84 163e 8546 583e
00000150: 89ce ae3e f13d c53d ac83 dd3d 36b3 ae3d
00000160: bdda 973d 466c b03d b64c c23d 22a8 de3d
00000170: 3297 3e3d 1e37 3d3d ed07 953d bf99 e83d
00000180: 5342 253d 6fe5 023e 7014 ca3d 598b 573d
00000190: 1383 9f3d 063d 0e3d 4bd6 623d f7db bc3d
000001a0: 5dcf 123e 6d52 503d 088f 1e3e 1fad d93d
000001b0: cdbc 953d 4908 af3d 4d42 473e 6ec3 0b3e
000001c0: f22c 8d3d c041 213d a937 5c3d fdec 2c3e
000001d0: 1f6a 143e 3e90 413d a516 083e 7733 983d
000001e0: c471 073d b1aa dd3d 6c09 b13d 07dc e63d
000001f0: 2f0c 803e 2ae9 453e 767c c03d 150d b63d
00000200: 65d9 293e 59d8 ee3d b34a 703e 097d 693e
00000210: 7f46 263e abee 4e3d cb97 853d c459 b03d
00000220: 72d0 973e ca6f 403e a6fe a93d a4c8 d73d
00000230: 02af 873d 4e20 933c 7c1a 6a3d c9e3 763e
00000240: 85af 103e 0a3c 013e 302f 2d3e e4ed 053e
00000250: 238e 7b3e b1ba 213e f90f 2d3e 131e d53c
00000260: 3fa7 ed3c 9056 a13d a6b5 003e 29da 4a3d
00000270: 796d 7f3e 16c5 e73d 40ae da3c 0ce9 303d
00000280: 2c73 6f3d 364c 9a3d e311 f83d 9002 513d
00000290: 9370 163e 3c33 183e 16f9 743d 9fdf 463d
000002a0: 8914 883d b13e d63c fc3e 373e cc07 593e
000002b0: b67e 953d e5fc 943d 58e9 3f3d c0f8 123d
000002c0: 3a92 b13d 4848 d13d bf49 783e 5ebd 2b3e
000002d0: dacc 603e c174 063d e4b1 133e ae19 483e
000002e0: 4995 953d 28a0 d93e a277 c53d 3d18 513d
000002f0: 4a3f 4b3d 6792 3d3e 1c07 6f3d 09a2 3f3e
00000300: 4643 a53d 6b43 2b3e 3287 973d 3228 633d
00000310: d6d2 4e3e ff8c 893d cedb 0f3d 606a 333e
00000320: b5f1 a33e 3828 033e 7dc8 db3d 16f4 223d
00000330: 46f5 943d 44eb 1c3e b500 903d a867 233e
00000340: 854b 023d 5b5b 043f e7c4 a33d 83dc 293e
00000350: e616 233d 456d d03d c737 913d b8a4 f53d
00000360: 1f67 4a3e 43b8 6c3d 6bc7 413e 6b8b 703d
00000370: df98 233e 9884 463e 79ac 2c3e 382f b03d
00000380: ed88 623e 94f6 6e3d ffbe 1c3d 8cb6 c53d
00000390: 43dc a23d fc76 2d3d 33f1 7a3e 7a49 c23d
000003a0: 0be9 7f3d bbfa 9f3d 1cf0 983d 7170 5d3d
000003b0: 58bc 1f3e a2e2 423d d93f 803d 9aff 643d
000003c0: 2c9c 233e a42c 173e 5414 3e3e 061d 3a3e
000003d0: f90c de3d 320a 133e dc62 6b3e 3c5c 243e
000003e0: a78a 543e ab71 193e b24e 033d cca7 473e
000003f0: 16bb 023e d4a4 be3d b659 1c3e 20b9 fd3c
0.07453053 0.31421277 0.12868917 0.10441378 0.07049754 0.038610768 0.13199934 0.10289485
0.045963243 0.11297823 0.034455918 0.05785306 0.10589781 0.07933021 0.03630387 0.088455
0.09012772 0.11454498 0.19340359 0.05441552 0.1837482 0.07532337 0.11177401 0.1266582
0.08178498 0.09676371 0.07817397 0.20369117 0.07886701 0.20564173 0.22289011 0.07625489
0.28908628 0.15330696 0.32695863 0.13980807 0.08480961 0.043515686 0.13708998 0.115665406
0.115675986 0.07423942 0.077896625 0.06401524 0.07609343 0.13080525 0.31449175 0.0544509
0.07440975 0.1368996 0.13827884 0.046789393 0.07029583 0.07315048 0.10942654 0.091903284
0.07460064 0.1415005 0.10382398 0.07515319 0.29327017 0.123374246 0.18433729 0.2231898
0.065759055 0.060711022 0.05512514 0.10244593 0.05874029 0.26502967 0.11362754 0.09202949
0.09294962 0.15711762 0.14332578 0.088146806 0.11190218 0.0683984 0.1535641 0.033131115
0.031922735 0.07781137 0.14698832 0.21120651 0.3414195 0.09630955 0.1081613 0.085302755
0.07414768 0.086144015 0.09487288 0.108719125 0.04653091 0.046195142 0.07276902 0.1135745
0.040346455 0.12782834 0.098671794 0.052623127 0.07788672 0.034726165 0.055380147 0.092216425
0.14336915 0.050859857 0.1548425 0.10628723 0.073114015 0.08546502 0.19458885 0.1364877
0.06893338 0.039369345 0.05376402 0.16887279 0.14493607 0.0472567 0.13289888 0.07431691
0.03306748 0.108235724 0.08644375 0.11272436 0.25009295 0.19327226 0.09398739 0.08889214
0.16586836 0.11662359 0.23465995 0.22801603 0.1623783 0.05052058 0.06523093 0.086108714
0.2965122 0.18792644 0.083005235 0.10536316 0.06625177 0.01795974 0.057154164 0.2411033
0.14129455 0.1262056 0.16912532 0.1307903 0.2456594 0.15793873 0.16900624 0.026015317
0.029010413 0.078778386 0.12569293 0.04952446 0.24944104 0.11316888 0.026694417 0.043191
0.058459446 0.07534067 0.121127866 0.051027834 0.14691381 0.14863294 0.05980786 0.048553105
0.06644542 0.02615294 0.1789512 0.2119438 0.07299559 0.07274798 0.046853393 0.035881758
0.08670469 0.10218865 0.24246882 0.16771457 0.21953145 0.03282619 0.14423329 0.19541046
0.073038645 0.42505002 0.09641959 0.051048506 0.049620904 0.1851288 0.05835639 0.18714155
0.08069472 0.16724937 0.07398833 0.055458255 0.20197615 0.06716346 0.03512173 0.17521048
0.32020345 0.12808311 0.107315995 0.03978356 0.07273345 0.15324122 0.07031385 0.1595751
0.031810302 0.517019 0.079965405 0.16588025 0.03981676 0.101770915 0.07090717 0.11994308
0.197659 0.057792913 0.18923728 0.05872671 0.15976284 0.19386518 0.16862668 0.08602756
0.22122546 0.058340624 0.038268086 0.09653959 0.07952168 0.0423498 0.24506073 0.09486671
0.062478106 0.07811495 0.07467672 0.05406231 0.15599191 0.047579415 0.06262178 0.055907823
0.15977544 0.14763123 0.18562442 0.18175134 0.10842318 0.14359358 0.2298693 0.1605081
0.20756017 0.14984767 0.03205747 0.19497603 0.1276668 0.09308782 0.15268597 0.030972064

weight f4 [1, 400]
00000000: a0c9 db3c 9026 103c 3281 01bd b6ed 093c
00000010: ee7f d5bc a531 e5bb 772a 9f3b 7dec 36bc
00000020: 5b97 b2bb 208c 363d 61e4 3abd 7ab9 213d
00000030: ad52 eabc fa5f 083b 904d 013c 23d7 27bc
00000040: 9f39 81bc fda0 bd3b cebf ce3c 026e ccbb
00000050: 62e9 f43c 9dd8 ac3b 94cc 1fbd 30fc d2bc
00000060: a687 42bc 8bdb e33a 7b73 f73c a385 613c
00000070: 135e 043d 18b9 9dbc 85b3 43bc 7eb7 1fba
00000080: 0e85 84bb fd40 ae3a df33 873c ee63 8d3c
00000090: dfea 01bd d48e 31bd 542c d8bb 1830 5b3b
000000a0: 8451 a3bc b4ea 27bc 6bf5 3cbd 6106 dc3b
000000b0: 13b0 3e3d 65b7 4e3d 66a3 e1bc 20d9 633d
000000c0: 1ffc 7bbc a2e4 0ebd 639f ac3c 9ec5 5e3d
000000d0: fd0e 80bb c82d b1bc 06dc be3b 7737 263d
000000e0: cc40 483d 5ada a0bc cdd3 303c 9850 7c3b
000000f0: deb5 773b 14d7 c53b b731 f53a 1b84 d13b
00000100: 303b 9f3c 6f9a 8fbc da5c 013d a77f 9cbc
00000110: 96d3 debc c9c5 f03c 24e6 fbbc 5680 3ebd
00000120: ad63 d03a 999f e43c b67a b4bc d4b7 283c
00000130: 6368 a9bc 6d7b 1b3c 1a9d ec3c 141f 253b
00000140: 6f74 2abd 60a6 3fbd f7d7 b2bc 9aa3 a3bb
00000150: cb5c 4abc 73e7 0f3c 3dc7 203c 0583 23bd
00000160: ca68 133c cb3d 0fbd ea72 bb3c 15d2 31bb
00000170: fbe9 243d 700c b43c ab3b 15bd af5b 1c3d
00000180: d280 efbc d56c 3ebd b524 5c3d 7c99 08bd
00000190: 0502 f2bc a1ff 8ebc 0895 babc e0e9 ebbc
000001a0: 88e8 073c 2f4b 05bd 0c96 0cbc 535e 5c3c
000001b0: 9ee1 3dbd 5549 cd3c 857a f43c e290 9b3a
000001c0: d05a 84bb 39d7 29bd ccbd f03c 4fad 1d3d
000001d0: 8202 b7ba c219 773c 478c 07bd e603 c6bc
000001e0: 75e6 043d 2bb9 32bd d82b 243b 696a 6cbc
000001f0: f591 1abd cbc1 653b e419 e2bc e63c 893c
00000200: 2592 e8bb 23c2 043c 0039 1b3c 3918 54bd
00000210: 3aeb a33c 0ad1 8e3c 8af4 4bbc 6968 8b3c
00000220: d7ca 0abd 0614 1b3d 1d24 98bc fb8c 883c
00000230: 11c6 1cbc 72f7 88bb 3dbb 7c3c 51c6 ce3c
00000240: ccf2 0fbc c213 0e3d bc5a 4d3c acc4 283c
00000250: c2bc 83bc 9321 613c 78c3 253c 8e68 443c
00000260: c7bc 1d3d 2e6e f63c 2622 2f3d 6f51 9cbc
00000270: 254b ccbc 61eb 4d3c 1354 acb9 92bd 19bc
00000280: 0ea8 11bc 1df9 3cbc f238 573b 20fe 563c
00000290: 9c2f e13c 112d 8a3c 40a1 cdbb e926 ec3b
000002a0: 8c15 203d 4459 3fbd c3bc f9ba f9ef 82bc
000002b0: 139e 033c a332 09bc 9fdd abbc cf69 1cbc
000002c0: 3632 9a3c 11a8 e03c c17d 233d 1326 32bd
000002d0: 89ae 17bd 30aa 1abd 0b2f 85bc 2596 9d3c
000002e0: 9828 883b d28c 423d 3f7e 7d3b dadc 0f3d
000002f0: 7414 ce3c a375 9b3c 1aa6 ad3c faf7 bd3b
00000300: 909a 7c3b bf0a a93c d45f a5ba 5f9d f1bc
00000310: 0e0d 6ebb 71c5 93bc 33ea c63b 439c b23c
00000320: c6fb 99bc 7630 403c 7e0d 07bd 2f3b 9d3c
00000330: 847c 58bd e009 3fbc 1062 49b9 1aa8 313b
00000340: a838 963c b336 94bc badc 923b 42ed 0f3c
00000350: 32f4 533c 4e25 ccba 16d8 24bd fd80 12bc
00000360: e47a e83a 3add d53c 0576 f73c d162 b13c
00000370: c0c3 e6bc f20e 0dbd 6a5a 213d 4939 8e3b
00000380: c610 15bd def4 33b9 0f0d 123d fd61 9a3c
00000390: 309c 963c ed21 173c 7463 9a3b 10d4 053d
000003a0: 6357 92bc 2157 d73b a7bb bdbc 93cf 91bc
000003b0: e58d 04bd c4a6 a93c ea1c 27bc b4b0 bb3c
000003c0: dfde 8b3b 4b8e 4c3c 9ba3 e9bc 5207 31bc
000003d0: 3c6c babb 3a0c fcbc c3fc fe3c b23f 2c3d
000003e0: b04b febb 6101 0abd 3988 dcbc 1bd1 14bd
000003f0: a9cf f3bc d55e 0dbc 5bed 763c 554a cdbc
0.02682954 0.0087982565 -0.03161735 0.008418491 -0.026061978 -0.0069944435 0.004857357 -0.011164782
-0.005450172 0.044567227 -0.045627955 0.039483525 -0.028603876 0.002080916 0.0078920275 -0.010244164
-0.015774546 0.0057870136 0.025237944 -0.0062387 0.029896442 0.0052748458 -0.03901346 -0.025755018
-0.011873161 0.0017384154 0.030206433 0.013764772 0.03231628 -0.019253299 -0.011944656 -0.0006092711
-0.0040441817 0.0013294515 0.016504226 0.017259564 -0.03171813 -0.043349102 -0.006597081 0.0033445414
-0.01993633 -0.010248829 -0.046132486 0.0067146276 0.046554636 0.050467867 -0.027543735 0.05562699
-0.015379935 -0.03488601 0.021072095 0.05438768 -0.0039080367 -0.021628276 0.0058245687 0.04058024
0.04888992 -0.019635368 0.010792685 0.0038500186 0.003779761 0.006037602 0.0018706833 0.006393922
0.019437402 -0.017529694 0.03158269 -0.019103838 -0.027200501 0.029391186 -0.030749388 -0.04650911
0.0015898846 0.027908133 -0.02203117 0.010297734 -0.020679658 0.009489876 0.028883506 0.0025195526
-0.041614946 -0.046789527 -0.021831496 -0.004993868 -0.012351225 0.008783209 0.009813127 -0.03991987
0.008997152 -0.03497104 0.022881944 -0.0027133275 0.040262204 0.021978587 -0.036433857 0.038173374
-0.029236231 -0.04649051 0.053745944 -0.0333495 -0.029541979 -0.017455878 -0.022776142 -0.028798044
0.008295186 -0.032542404 -0.008580696 0.013450223 -0.046357743 0.025059381 0.029843578 0.001186874
-0.004039146 -0.041465018 0.029387377 0.038495358 -0.0013962539 0.015081825 -0.033092763 -0.02417178
0.032446343 -0.04363362 0.0025050547 -0.014429667 -0.03773685 0.0035058137 -0.027600236 0.016752671
-0.0070975 0.008102926 0.009474039 -0.051780913 0.020009626 0.017433662 -0.012448439 0.01701756
-0.03388485 0.037860893 -0.018571908 0.016668787 -0.009568707 -0.0041798884 0.0154255 0.025241049
-0.008785915 0.03468681 0.01253384 0.0103007965 -0.016081218 0.013740915 0.010117404 0.011987818
0.03851011 0.030081835 0.042757176 -0.0190818 -0.024938175 0.012568326 -0.00032869037 -0.009383576
-0.008890165 -0.011534003 0.0032840339 0.013122112 0.027488522 0.016867192 -0.006275326 0.007206787
0.03908305 -0.04671599 -0.0019053448 -0.015983569 0.008033293 -0.008373889 -0.0209797 -0.009546711
0.01882277 0.02742389 0.03991485 -0.04349334 -0.037031684 -0.03775996 -0.016257783 0.019236634
0.00415523 0.047497578 0.0038679985 0.03512273 0.025156237 0.018976992 0.021197367 0.0057973834
0.0038544275 0.020635007 -0.001261706 -0.029493986 -0.00363237 -0.018038483 0.006070399 0.021803027
-0.018796813 0.011730304 -0.03297185 0.01919326 -0.052853122 -0.011660069 -0.00019205385 0.0027108253
0.018337563 -0.018092489 0.004481879 0.008784594 0.012936639 -0.0015575083 -0.040245138 -0.008941886
0.001773682 0.026106466 0.030207643 0.021653565 -0.028169513 -0.03443808 0.039392866 0.004340325
-0.03639295 -0.0001716199 0.035656985 0.018845553 0.018385023 0.009224397 0.004711563 0.03267294
-0.017863935 0.006571666 -0.023160769 -0.017799174 -0.032361884 0.020709403 -0.010199765 0.022911407
0.0042685117 0.012485097 -0.028520396 -0.010804968 -0.005689172 -0.030767549 0.031126386 0.042052932
-0.0077604875 -0.03369272 -0.026920425 -0.03633223 -0.029762106 -0.008628567 0.015071238 -0.025059858
