NN/corrected_model_20250928_173833.pth (torch, 138720 bytes, 7 tensors)

net.0.weight f4 [128, 20]
00000000: 268c 91be e58e 41be ec31 b43c 8031 da3c
00000010: 34f3 93be daa0 29be 68b4 3b3e b157 4c3d
00000020: f5de 04bd 22af 3abe d3c0 833c 1423 3715
00000030: d71a 4abf 276d 2b3e 6e60 06be 3215 7abd
00000040: 146e 233e 12c1 d8bc 9fb8 033e 55a9 1bbe
00000050: a0fd a0bd aa4f 53bb 493f 1f3e d583 d73d
00000060: c6d0 42bd 0fc8 6bbe ebfd 20be fe63 a7bc
00000070: 9fd6 7d3d b981 0b3d b2a3 043e d9ea ef3d
00000080: f7c3 c4bd 9f57 be3d 4bd4 b23d da81 84bb
00000090: 60e4 f5bd ee1b ac3c bc9f 8d3d 68c1 fd3c
000000a0: e337 75be 74ca 4abd 0629 083d 109d 1cbd
000000b0: ffed 3e3e 240e 5d3e d168 59be fb5e 023e
000000c0: b279 523e 1ffb 703d ca50 1d3c 9117 2a3d
000000d0: a5ae 73bd e50f 3ebe 4bbe 153e 3cf2 7a3e
000000e0: d4f3 f1bd 2041 fa3c 1cf4 67be 75bd b0bd
000000f0: da26 2f3e 97fb 243e 0afd bf3d fb99 debd
00000100: 3310 2b3e 5a57 603d 73c4 65be e874 cfbd
00000110: 288c 933c c40c 5ebe 269d 03be fc82 4cbe
00000120: 2309 1ebd 2969 913a 293b 86bd 00be 7fbe
00000130: 6439 173e 6594 163d 1057 ac3d fdd4 b3bc
00000140: cf55 0f3d 04a2 963d 0379 86bd cc0a 07bc
00000150: c6b0 803d b8ea 5cbe 14ac 1fbe d396 223e
00000160: 9fb8 473e 06fd 333e 3149 0e3e 6958 3b3e
00000170: 60c6 e83d b631 bd3d a7cc 08be ce29 19be
00000180: 2a70 13bc 9518 543d 84e7 e3bc fa3a 6bbd
00000190: f892 203e e6a9 333e 89e3 ed3c 88fb 003d
000001a0: 8380 a73d a70b b53d 5bae 76bd 01df aa3d
000001b0: 755b 963d e0d0 abbd eb99 c0ba c352 9dbd
000001c0: aef8 913d 5c7d 9139 d784 1fbe 5950 f1bd
000001d0: 17a6 5cbe 37c1 a83d 1bf8 003d 252c e73d
000001e0: 948a 1fbc 2cf9 ebbd 3624 36be 02ef 93bd
000001f0: 6650 58be 0b40 613d c2c2 0dbe 53a2 17be
00000200: 8504 ab3d c2e3 0d3e 4a34 1a3e d833 923e
00000210: 8fe4 78be 3693 5d3e 5871 b03d 71b6 ac3c
00000220: c2de 60be c410 94bd 2510 e73c abd0 42bd
00000230: 6ccb 073e 481f 65bd 7734 cb3d 5aca e03c
00000240: 1bde 43bd afe0 a7bd b9ae 71be 19f4 db3d
00000250: ee57 b53d ecf9 47be 8230 32be ee6c d8bb
00000260: c072 32be 84a9 1cbe f71e e63d b9f3 083e
00000270: 4c45 0abe 2d5c 67be 1102 df3d 6319 84be
00000280: 7681 4bbe dd88 863d f5ba 7c3e a11a be3c
00000290: ca14 45be 2b38 fabd a4e3 12be ccb9 e83d
000002a0: 6fe4 213d a748 8fbd 8001 9cbe bf3c 17be
000002b0: 5b93 fabd 413e e23d 8622 3ebe 968f 5abd
000002c0: 3367 1b3d afd1 cabd e3cb 0b3e 66da 133e
000002d0: 89dd 7e3c bb9a a33c 8bdb a9ba b727 2ebe
000002e0: d7a8 b1bc 29f0 86bb e6e0 563d c996 dcbd
000002f0: 5ac4 1db5 b250 d0bd 0dfb 0b3e 6a7f 95b9
00000300: 0e91 583d 9ef9 e83b a5dd ebba 28f0 ff34
00000310: 595b 0bbe 553a 86bd b0dc 643d b3a4 2f3e
00000320: b17a f0bd 25e8 1e3c 6a3d 99bd 9753 2cbd
00000330: ae6a 5ebe 6e69 31be f536 6e3b 8bef 333e
00000340: 5754 bebd db1f 90bd f1d4 a63d 433c c3bd
00000350: 0daf 863e d229 123e 5a3a 293e fc32 df3b
00000360: e470 e4bd 3024 01be ddeb 5cbe a5be 40be
00000370: a90e 6d3d 6088 18be 7335 2ebe 89cc 3bbe
00000380: 0a6a 62bd 555e 293b 48f5 09be e6a4 f2bd
00000390: c353 2cbe 4caf e3bc 71fe d3bd 2561 243c
000003a0: 33ce 5f3e 5f07 88bd f67c c3bd 170c 893e
000003b0: d66e 733d 0108 083e 7419 fcbd 1ef5 65bd
000003c0: 86ac aa3d d8e0 493e 2733 123e f15a eabc
000003d0: 3d2f 30bc 08d3 bbbd f00f 0c3d 378b 823d
000003e0: b592 d5bd 9824 1e3e 55ab cf3d fdaa f03d
000003f0: 5f7f 99be 5c9e b3bd c74e 0bbe 2671 413d
-0.28427237 -0.18902166 0.02199646 0.026634932 -0.28896487 -0.16565266 0.18330538 0.049888317
-0.03243919 -0.1823087 0.016083157 3.6984227e-26 -0.78947204 0.16740857 -0.13122723 -0.06105537
0.1595996 -0.02645925 0.12863396 -0.15201314 -0.07860875 -0.0032243528 0.15551485 0.10523192
-0.047562383 -0.23025535 -0.15721862 -0.020433422 0.061972257 0.03405926 0.1295307 0.117147155
-0.0960769 0.09294056 0.08731898 -0.0040438 -0.1200645 0.021009412 0.069152325 0.030976012
-0.239471 -0.04950948 0.033242248 -0.038235724 0.18645476 0.21587425 -0.2123139 0.12731545
0.20554236 0.058833238 0.009601781 0.04152638 -0.059492726 -0.18560751 0.14623372 0.24506468
-0.11814085 0.030548632 -0.22651714 -0.08629886 0.17104664 0.16111599 0.09374435 -0.10869213
0.16705398 0.054770805 -0.2243822 -0.1012972 0.018011168 -0.21684557 -0.12852916 -0.19971842
-0.038582932 0.0011093962 -0.06554253 -0.24974823 0.14767987 0.036762614 0.08415043 -0.021952147
0.034993943 0.07355121 -0.0656605 -0.00824232 0.06283717 -0.21573913 -0.15592986 0.15877847
0.19504021 0.1757699 0.13895108 0.18295445 0.11365962 0.09237997 -0.13359319 -0.14957353
-0.00899891 0.051781256 -0.027820356 -0.05742929 0.15681064 0.1754528 0.029039161 0.03148988
0.081788085 0.08840113 -0.060224872 0.08343316 0.07341663 -0.08389449 -0.0014694309 -0.07681801
0.0712751 0.00027749955 -0.15578018 -0.11782903 -0.21547733 0.08239978 0.03148661 0.11287717
-0.009737629 -0.11522135 -0.17787251 -0.072233215 -0.2112442 0.054992717 -0.13843825 -0.14808016
0.083504714 0.13856414 0.15059009 0.2855518 -0.24305938 0.21638188 0.086153686 0.021083089
-0.21959975 -0.0722976 0.02820594 -0.047562283 0.13261193 -0.055938035 0.09922116 0.027440239
-0.04781924 -0.08197152 -0.23601808 0.10739917 0.08854662 -0.19528931 -0.17401317 -0.0066047823
-0.17426586 -0.1529904 0.11236375 0.13374223 -0.13502997 -0.22593756 0.10889066 -0.2580062
-0.19873604 0.06569073 0.24680693 0.023206057 -0.19246212 -0.122177444 -0.1434465 0.11363563
0.039524492 -0.06996279 -0.30469894 -0.14769267 -0.12235137 0.1104703 -0.18567857 -0.05335959
0.037940215 -0.09903275 0.13651995 0.14438781 0.015555748 0.019971242 -0.0012959106 -0.17007338
-0.021686954 -0.004117985 0.052460574 -0.107709475 -5.8772787e-07 -0.101716414 0.13669987 -0.00028514426
0.05287271 0.007109835 -0.0017995132 4.7672188e-07 -0.13609065 -0.06554095 0.055874527 0.17152672
-0.117421515 0.009698902 -0.07482417 -0.042071905 -0.21720383 -0.17325374 0.0036348675 0.17571847
-0.0929343 -0.07037326 0.08146084 -0.095329784 0.26305428 0.14273766 0.16526166 0.0068114977
-0.11154345 -0.1261146 -0.2157435 -0.18822725 0.05787531 -0.14895773 -0.17012577 -0.18339743
-0.055276908 0.002584358 -0.13472474 -0.11847858 -0.16828828 -0.027793549 -0.10351265 0.010032927
0.21856003 -0.06642031 -0.09545319 0.26767036 0.059431873 0.13284303 -0.12309542 -0.056141965
0.083336875 0.19714677 0.14277326 -0.028607817 -0.01075345 -0.091711104 0.034194887 0.063742094
-0.10428373 0.15443647 0.10140101 0.117513634 -0.2997999 -0.08770439 -0.1360427 0.047227047

net.0.bias f4 [128]
00000000: 105c 943b 99ae 11bd 01ae a8bd 3516 08be
00000010: 58df ea3d 20e9 f4bc e97a 7bbc 8e63 293e
00000020: 11f7 e63c 08cb c6bd 888d f0bd 53ae 033e
00000030: 95c0 173e cbfe 213d ccdc 3d3e 0e9a 21bd
00000040: 1e77 033d 35ed 10be fda8 2dbd 08ef de3d
00000050: f80a 0bbe e31c 793c 919a 3cbd 1f71 55be
00000060: 7c30 73bd 2bf8 aa3d 6967 68b8 1bda a4bc
00000070: 91fb 70be a463 303e f8cf f03d ef4e 083e
00000080: 5ca3 bdbb f7e9 073d f56f df3d 8c48 a23d
00000090: 6921 e43d b03d 90bd 7714 39be 160b 793c
000000a0: c9cd 5ebe a399 bebd d34d 05bd 1c9e 49bd
000000b0: 6445 1ebd 2700 e4bd a4fb 9d3d 08c5 a53d
000000c0: 4415 a73d 623d f63d d3e4 31bd 3b9a a9bd
000000d0: 0646 b73d d949 53bd 1705 183e c7d5 91bd
000000e0: d81b dcbd bb97 edbd 3f4c c93c 3e22 3aba
000000f0: a624 aabd 0e39 dcbd 82e4 e3bd 9ad9 ab3c
00000100: c154 09bd 406b 1f3e 4c7b 46b9 0acf 2dbe
00000110: b1b9 61bd 7683 01bd 9d14 d9bc e2d8 29b0
00000120: 5d1b fdbc eeeb c73c bad5 2abe 4d0e e9bd
00000130: 703e 64be 2600 ffbc be73 0b3e f3e7 5fbc
00000140: 1855 e13d db00 bcbd 05df 7fbd 6fc4 c83d
00000150: 3e9a 44bc 8492 1ebe 4c5c 59be 72fb 163e
00000160: 020a 223d aa83 7fbd f4f3 303d a5f8 0dbc
00000170: 2cbb 6f3d 282e 21bd 232d 66bd 2d13 60bc
00000180: 7f87 1c3e 9f73 17be cd79 223c 987c 3a3e
00000190: 784e 48be 5c9e 053e ce11 c9bd 3c1f 72bd
000001a0: 4399 ee3c 4dfb e93d ca9b d63d 781f 69be
000001b0: b122 9fbd a709 28be 6982 083e 0ae4 4b3b
000001c0: 972d c23d 66f3 b43d 5793 f6bd 3c11 bfbd
000001d0: ba41 293d c7d1 23be df62 2b3d 2c91 963d
000001e0: 4bc0 9c3d 13b4 12be 23af 463d 51a8 d8bc
000001f0: 364b 2c3e fc4c 803d 8a4a 06bd 27e3 98bb
0.0045275763 -0.0355669 -0.082363136 -0.13289721 0.11468381 -0.029896319 -0.015349128 0.16541883
0.028193982 -0.09706694 -0.11745745 0.12859468 0.14819558 0.03954963 0.18541259 -0.03945356
0.03209602 -0.14152987 -0.042397488 0.10885435 -0.13578403 0.015204641 -0.046045844 -0.20843934
-0.05937241 0.083481155 -5.540942e-05 -0.020123532 -0.23533465 0.1722551 0.11758417 0.13311361
-0.005787296 0.03318211 0.10910026 0.079239935 0.11139185 -0.07043016 -0.18074213 0.015200397
-0.21758188 -0.09306648 -0.032544922 -0.04922305 -0.038640395 -0.111328416 0.07714012 0.08094221
0.08158353 0.120234266 -0.043431114 -0.0828137 0.08948903 -0.0515841 0.14845692 -0.07120853
-0.10747498 -0.11601206 0.02457249 -0.00071004394 -0.083077714 -0.1075307 -0.11127569 0.020977784
-0.033528093 0.15568256 -0.00018928683 -0.1697351 -0.05510873 -0.03161951 -0.026499087 -6.179005e-10
-0.030896837 0.024404492 -0.16683093 -0.11379681 -0.22289443 -0.031128 0.13618371 -0.013666141
0.110025585 -0.09179851 -0.062468547 0.09803092 -0.011999665 -0.15485579 -0.21226615 0.14744356
0.039560325 -0.062381424 0.0432014 -0.0086652385 0.05852811 -0.03935066 -0.05619539 -0.013676447
0.15286063 -0.147902 0.009916735 0.18211591 -0.19561183 0.1304869 -0.09817849 -0.05911182
0.029125815 0.11424885 0.10478933 -0.2276591 -0.07770289 -0.16409932 0.13330998 0.0031111264
0.09481352 0.08835487 -0.120398216 -0.09329459 0.041322447 -0.15997992 0.041842338 0.07351908
0.076538645 -0.14326505 0.048506867 -0.026447447 0.16825566 0.062646836 -0.03278593 -0.0046657505

net.3.weight f4 [128, 128]
00000000: c97b a33d b038 163d 1129 c33d ef56 e73c
00000010: 5f68 e23c 28fa 7bbd 3bb7 f73d 9038 823c
00000020: 9304 a0bc b020 73bc 0a7d f4bc 5eff 413d
00000030: 03d3 233d 9195 6f3d de6d 0c3d 4e78 00bd
00000040: d205 c9bc 9e75 4d3c 0189 e8bc 7c7b 6d3b
00000050: 9ed9 913d 269b 8abd f07b 6cbd 091c ee3c
00000060: 3d72 f03c 4044 253d 98ed 9aac fcb6 403c
00000070: 582b 54bc 1491 9d3d 7aba 8d3d 97eb 343d
00000080: 6080 40bd afe8 36bd 37bc 043d de40 87bd
00000090: 5771 bc3d eb1e 823d 607a 20b7 fe89 9a3c
000000a0: 46a1 9dbb 8c1d 083b 9246 edbc e0ea eb3d
000000b0: 8f54 b0ba b897 b63d 96ce 5f3d 5d80 b83d
000000c0: f464 8f3d ac79 803d e0ca bcbb 392b 393e
000000d0: bdf1 2c3b 9f3c 513b 781a c83c 9b7b f83c
000000e0: 2b03 1e3e 9e21 0a3e 446f 10bd 0284 9fa5
000000f0: 8f6e 263d 073b 1dbd 679b 7cbd ac9e 2f3e
00000100: 161d ae3d 3be4 86bd 04ff bb3d d9da a73c
00000110: 4491 a83d bec2 e93c 3fdf b9bc 689a 4435
00000120: 9d23 e9bc daa1 6c3d df90 b7bd 37d6 8196
00000130: 4da1 043c 967d 163d c045 543d 5a93 a8b2
00000140: 110e 08be f9f5 c23d 68f1 b2bd c45a 77bd
00000150: b4e4 1e9a d4d1 cab8 f638 583c 722b bf3d
00000160: 2e5d 963c d0ee 3a3c 514c 13ba dc49 abbd
00000170: 6875 633d c6a2 993c fc5e dfbd ee44 1fbd
00000180: dca3 913d 1fef 173d c311 df3d 4449 a0bb
00000190: 17d5 3abd 507e 0a3e 6967 a6bc fdfe 343c
000001a0: 539c d13c a3d8 f6bb fdea 0dbd 6264 183e
000001b0: 6d40 1cbd 93b5 e5bc 0c05 8b3d f46a 8e3c
000001c0: 4cf7 debc 34aa 2ebd db9d 41bd 4c2e a6b5
000001d0: 3b5e 033d 8d30 123e a9bd 90bd 12f0 333d
000001e0: d10c 2bbd d46b 373c 2216 80bd a1cf 46bd
000001f0: 79d8 9c3d 183b 82bb 8d57 c0bc a704 9e36
00000200: c060 f412 da73 a495 1aac f613 5c58 1d15
00000210: 7e6a f9bb 4144 a9bb 6800 2fac 55b5 d895
00000220: 7bc4 2115 9f8a 8d15 05d4 e2b9 0432 1895
00000230: de99 b5bb ba34 cc14 02d8 d594 54c7 6a3a
00000240: 48a0 9111 a7da db15 0c3d 3211 25b5 8794
00000250: a63d e1b5 b14b dd93 4feb 02bc e3b4 d295
00000260: ea3a e812 fea5 4c15 02bf 5e14 94ea 0616
00000270: c4db a615 18d0 fe15 b105 d694 4a7d 0815
00000280: a110 84bb e830 aabb 8924 a9bb 5431 5913
00000290: 19d6 afbb 6597 9114 b4f3 ab14 0da9 d139
000002a0: 82ce cd14 4b50 2b96 50d4 4193 2ce5 cf91
000002b0: 08cc fd93 5672 1eba a158 c9bb 54da 2a95
000002c0: 0433 16bc b231 9b39 f856 5195 d7df 32b8
000002d0: 6e6c 543a bab7 8c14 f80f 8995 ae7f adaf
000002e0: 88df e212 f44f cd15 84fb 4615 2493 f313
000002f0: 36ad 3e15 e2ed 7c15 f35c 5294 3292 0595
00000300: ce4f 6693 bd71 9cbb a742 92bb f4f5 2eb7
00000310: aa79 4894 4def ac15 9a47 9794 d210 f995
00000320: db08 6494 ab2b 4e94 a11e aa14 0d00 7a15
00000330: cc70 d792 2899 9715 edde 0294 762d a215
00000340: 683c 3b15 1a18 9613 949a abb1 eab3 6315
00000350: f73d 8d93 051f 8695 f6b3 0996 0372 0112
00000360: e7c3 9714 6395 78ba 06af 5cb8 bf0c 29b8
00000370: 79b7 52bb b8ff c715 343d ff14 e5d6 8015
00000380: 8d9f 13bb 9903 0dbc a471 a0ba a580 38bb
00000390: b586 e4ba 9802 0293 cdf4 a994 e080 ab15
000003a0: d9e1 7a92 693a 0a93 a9a0 86bc 32d0 0096
000003b0: 9eba 7c15 946b 1795 cd53 9bb0 5e83 0016
000003c0: 768c 14bb 7825 a194 e19b 3994 3903 c614
000003d0: d0ff bf92 880b 2213 d87a 1315 f603 9fbb
000003e0: de48 06bc 2273 5195 0e93 d214 fd87 9b95
000003f0: 25f5 0d96 ae58 acbb 9a2e 6312 35e1 3293
0.079825945 0.036675155 0.09529317 0.028239695 0.027637659 -0.061517864 0.12095495 0.015896112
-0.019533431 -0.014839336 -0.02984478 0.047362678 0.03999616 0.058492247 0.034284465 -0.03136473
-0.024538908 0.012540249 -0.028385641 0.0036236933 0.07121585 -0.067678735 -0.057735384 0.029066103
0.029351348 0.04034829 -4.4033215e-12 0.011762377 -0.012949787 0.07693687 0.06920333 0.04416999
-0.046997428 -0.044655498 0.03240606 -0.06604169 0.09201305 0.063535534 -9.565236e-06 0.018864628
-0.004810485 0.0020769564 -0.028964315 0.11519408 -0.0013452935 0.08915657 0.054640375 0.09008858
0.07001677 0.06273207 -0.0057614893 0.18082894 0.0026389204 0.0031927002 0.024426684 0.030332377
0.15430896 0.13489386 -0.03526236 -2.7671555e-16 0.04063278 -0.03838637 -0.06167164 0.17150372
0.085016415 -0.065865 0.091795 0.020490097 0.08230832 0.028535243 -0.02268946 7.324038e-07
-0.028459365 0.05777154 -0.08963179 -2.0976263e-25 0.008095098 0.03674086 0.05182433 -1.9624782e-08
-0.13286616 0.09519572 -0.08737451 -0.060389295 -3.285838e-23 -9.671194e-05 0.013197174 0.093344584
0.018354978 0.011409476 -0.0005618977 -0.08363697 0.05553189 0.018754374 -0.10906789 -0.038884096
0.07111332 0.037093278 0.1089206 -0.0048915464 -0.045613375 0.13524747 -0.020312982 0.011047122
0.025587237 -0.0075331493 -0.03464793 0.14882043 -0.03814738 -0.028040683 0.06788072 0.017384984
-0.02721753 -0.042642787 -0.047269683 -1.2381438e-06 0.032072287 0.14276333 -0.07067425 0.04393012
-0.04176027 0.011195142 -0.062542215 -0.048537854 0.076584764 -0.0039743297 -0.023479247 4.7093085e-06
1.5422416e-27 -6.6421854e-26 6.2268836e-27 3.17756e-26 -0.007611572 -0.005165607 -2.4869221e-12 -8.7527797e-26
3.2668687e-26 5.716815e-26 -0.00043264046 -3.073561e-26 -0.005542024 2.0619533e-26 -2.1592704e-26 0.0008956094
2.2975747e-28 8.879837e-26 1.4060536e-28 -1.3702965e-26 -1.6781748e-06 -5.586288e-27 -0.007990672 -8.5103713e-26
1.4655782e-27 4.1328417e-26 1.12458054e-26 1.0898454e-25 6.7393595e-26 1.029181e-25 -2.1610723e-26 2.7563817e-26
-0.0040303026 -0.0051938184 -0.005161826 2.7413571e-27 -0.0053660986 1.4700973e-26 1.7362711e-26 0.0003998954
2.0781163e-26 -1.3838606e-25 -2.4464703e-27 -3.280008e-28 -6.406737e-27 -0.0006044259 -0.0061445986 -3.4503457e-26
-0.0091674365 0.0002960093 -4.227582e-26 -4.2646974e-05 0.00081033155 1.4208855e-26 -5.5359054e-26 -3.1559239e-10
1.431771e-27 8.2924984e-26 4.0184192e-26 6.1486916e-27 3.8506834e-26 5.107865e-26 -1.06206216e-26 -2.6974464e-26
-2.9069428e-27 -0.004774301 -0.004463512 -1.0428474e-05 -1.01214136e-26 6.9847797e-26 -1.5275345e-26 -1.00596837e-25
-1.1512805e-26 -1.0408954e-26 1.7177694e-26 5.0487138e-26 -1.3596214e-27 6.123005e-26 -6.607287e-27 6.5503004e-26
3.7812e-26 3.788909e-27 -4.9943285e-09 4.5984212e-26 -3.5654506e-27 -5.417111e-26 -1.1123558e-25 4.0845753e-28
1.5324373e-26 -0.00094827096 -5.261509e-05 -4.030461e-05 -0.0032152815 8.077891e-26 2.577256e-26 5.203783e-26
-0.002252552 -0.008606815 -0.0012240899 -0.002815285 -0.0017435165 -1.6409586e-27 -1.7161196e-26 6.926968e-26
-7.916447e-28 -1.7446847e-27 -0.01643403 -1.0405453e-25 5.103821e-26 -3.057907e-26 -1.1301552e-09 1.038121e-25
-0.002266673 -1.6271624e-26 -9.370855e-27 1.9994162e-26 -1.2116857e-27 2.045296e-27 2.978332e-26 -0.004852767
-0.008196084 -4.2298038e-26 2.1262584e-26 -6.2818553e-26 -1.1467243e-25 -0.005259595 7.168601e-28 -2.2577794e-27

net.3.bias f4 [128]
00000000: 5f6e ae3d a4c0 28bc c701 5bbd 41a7 8e3d
00000010: 0d7b cb3c b573 7a3d 11bd afbd ae64 d03c
00000020: dc85 a73d c68b 02bd 9153 0ebd f342 0e3c
00000030: b228 46bd 14be 60bd 00fb 8cbd 625f 76bc
00000040: 649f b5bd 0d7a 793c 0b87 a5bd 8506 843d
00000050: 0aa8 cebc d6a6 80bc a6ce f6bc 07dc 6ebd
00000060: fbe9 b53d 47f3 9e3c eb0b 50bd a7e5 72bd
00000070: d718 7dbd cce3 9e3c 7a6e 41bc f02a 823b
00000080: 298d 83bc 67a3 433d 702f 36bb 46be 7b3d
00000090: b22a 9d3d 53cb 183d 4483 eabc f09b 3ebb
000000a0: 7b28 7dbd 961a b53c 8e14 40bd 073b 97bd
000000b0: 0f20 a1bd 79e9 83bd 37e5 58bd 9ec6 2cbd
000000c0: 0bf1 8b3d 8faf 2bbc f20f bbbd 0063 533b
000000d0: b7ad cb3d 4019 61bc c673 023d 90fa 693a
000000e0: 4a0e 85bd eb1d 7b3d 96d0 9dbd b060 ffbc
000000f0: 83e7 903d 4c27 d2bd ca48 85bc 4fe8 dd3b
00000100: bb21 9abd 01f7 3dbc fb95 a53d f792 b6bc
00000110: a7da 853d 1752 64bd f099 47bd 60ee b13d
00000120: 8451 3bbd 6376 4ebd 50e0 8f3c 63ab 403d
00000130: aa51 b9bd 88c4 d3bd c2c4 08bb a63f 513d
00000140: 9706 633d 86cf 68bd 95e4 cfbc 6d33 25bd
00000150: 66b3 96bb 1674 adbc 26d5 10bd 26c2 5abd
00000160: 4c57 913c 273f c8bc 92b5 8abd 37cb 3a3d
00000170: 8ea4 533d b32c 4f3d df30 7bbc 015c 0d3d
00000180: 03de 893c 2093 ccbd e105 193d 7d3b ba3c
00000190: e72b 433d 9e19 1d3d d198 b73d 5131 d2bc
000001a0: c739 643d c786 4c3b a611 b03b b26c 643d
000001b0: 887b 9fbc 030f b43d 6c63 4c3c fee0 4f3d
000001c0: 6376 d8bd 2132 9cbd b7c2 0ebd 6a48 383d
000001d0: 3503 c0ba 92ca 28bd 06f8 99bc 129f 2b3d
000001e0: a1e2 893c 6e8d 0bbc 05ac 5a3d 4576 8c3d
000001f0: 9e6d c93d 0e21 53bd 6402 b53d 9fa7 e13c
0.08517145 -0.010299835 -0.053468492 0.06965495 0.024838949 0.061145503 -0.085809834 0.025438633
0.081798285 -0.03187158 -0.034747664 0.008682954 -0.048378654 -0.054868773 -0.06883812 -0.0150373895
-0.08868292 0.015226853 -0.08082398 0.06446556 -0.025226612 -0.015704554 -0.030127835 -0.058315303
0.08882519 0.019403113 -0.050792616 -0.059301045 -0.061791267 0.019395731 -0.011806125 0.0039724037
-0.016058521 0.047763254 -0.002779927 0.061460756 0.07674159 0.03730328 -0.028627045 -0.0029084645
-0.061806183 0.022107404 -0.046894602 -0.073843054 -0.07867443 -0.06441016 -0.05295297 -0.042181604
0.06833085 -0.010478868 -0.09133901 0.0032255054 0.09945243 -0.01373893 0.03184869 0.00089255814
-0.06496866 0.06130783 -0.077058 -0.031174034 0.07075407 -0.102614015 -0.01627006 0.006772078
-0.07525965 -0.011594535 0.08085247 -0.022286875 0.06535845 -0.05574235 -0.04873079 0.086880445
-0.045732036 -0.05040587 0.017563015 0.047038447 -0.09048779 -0.1034022 -0.002086923 0.05108609
0.055426206 -0.056838535 -0.025377551 -0.040332247 -0.0045990227 -0.021173518 -0.035359524 -0.05340781
0.017741822 -0.024444176 -0.06772913 0.045603957 0.051670603 0.050579738 -0.015331476 0.03451157
0.016829496 -0.09988999 0.037359122 0.022733444 0.04764929 0.03835451 0.08964694 -0.025658282
0.055719163 0.0031208263 0.0053731976 0.055767722 -0.019468084 0.08791926 0.012474876 0.05075168
-0.105694555 -0.07626749 -0.034853663 0.044990934 -0.0014649393 -0.04120881 -0.018795025 0.04189975
0.016831698 -0.008517606 0.053386707 0.068584956 0.09835361 -0.051545195 0.088383466 0.027545748

net.6.weight f4 [112, 128]
00000000: a00e 26bd 5183 5a95 ef75 5cbd c53b 413c
00000010: 222d 0abe 479c a6bd 9fe9 cfbd aa0e ddbd
00000020: 7c83 b3bc a2b0 9b3b 9f01 d5bd 10b7 cbbd
00000030: 28da 74bd 9559 873b 2d4e 2ab6 598e 7bbd
00000040: 3c71 9fbb d512 213d 50ed d93b f383 8dbc
00000050: fde1 ac3c 7c72 aa94 f8de 053d 7ddd eebb
00000060: 4130 323b 350b 5ebd 3f00 a8bd 2afb 903c
00000070: 0bd5 fe3c 190c f1bd 418d 97bc 982a 1d3a
00000080: 8950 85bd 8d7f 823c c690 7d95 bcf9 a8bc
00000090: 3f3b 07be 75f0 61bd 839f 673c 4ea8 ccbd
000000a0: b6a8 79bc 44ab dabd a6a6 1ebd c5ba 38bc
000000b0: e128 fdbc e97b 87bc b3b6 25be f247 013b
000000c0: 6277 d6bd c37b 7bbd fa19 7bbd 26eb 9bbd
000000d0: 25d7 023d f0e5 26bc 948e 423c 35c9 35be
000000e0: ea7e a4bc 3693 ae3a ce8a 0d3d 9442 febc
000000f0: b507 823b e1d2 0fbd d89f da3a d389 153d
00000100: bdd7 15bd a8b7 65bc de19 c1bd 81ce ecbb
00000110: a6b4 b13d f1d0 be3c b46b 9bbd ef39 b0bd
00000120: b040 d2bb ba09 ba3a 29d7 2ebd 8a90 c03d
00000130: ea04 513d 00ed 3ebc 730d e3ba 918e f4bd
00000140: 374e 363c 2080 b23c 387d 12be d005 323c
00000150: 3ef4 ffbc ad3b 4d3c 6b08 cdbd 4341 8dbd
00000160: c1fe 87bd af0e 9638 6bf2 523c 75f3 adbd
00000170: 9f97 903d 24ab c63c 941c a6bd a6f8 dabc
00000180: 9c2f 75bb 5f80 013d a990 8bbd 2710 003a
00000190: dc08 67be ee08 76bd bb52 8bbc 647f 053c
000001a0: 6c3c c5bd f049 bebd 00c5 3cbd aa1c 2d3a
000001b0: 9b3b 283d 6f4d 3bbb c665 013d 77a4 4a3b
000001c0: db9c 3d3d 9790 fbbc 4d64 d33c 7102 c7bd
000001d0: 2d65 0a94 e0a0 73bc 380f a63c 9b8d 6fbd
000001e0: ff55 88bb 5c76 72bd 4d33 a4bc a7e8 23bd
000001f0: df35 4cbd 6eed 9239 bb81 c7bc 8cb2 1fbe
00000200: 514e d4bd ced3 2195 6517 5bbc d731 fdbd
00000210: 9f03 12bd 2002 1cbd e376 b83c d668 50bd
00000220: 862a e4bd c8b5 cdbd 8562 40bd 3c25 3f3a
00000230: f8d8 2dbd ef56 e2bb 0918 a215 494b be15
00000240: e6f7 a114 1e26 c9bd 74fc 2c15 7be3 79bd
00000250: 6d2c 5bbc 97dd 8794 779f ee3b 6a4f 12bd
00000260: 00dc 17bd f2f5 11bd 02b2 7893 5cc7 1294
00000270: affd 8814 10da 5cbd d330 9714 aa20 e313
00000280: cb63 d9bb 328b 47bd aead f712 b5e8 4abd
00000290: f1a6 1dbd 8738 f4bd 4ac9 69bd 8acf 91bd
000002a0: 14cd 3fbb 3139 7abd 543f 1e14 48e6 52bc
000002b0: 48cb 9fba 47f4 5cbc 7484 5cbd ee8f 17b1
000002c0: 1a3a 34bc fab4 53a2 086e 8815 d2fd 19bd
000002d0: 524c 9dbd 6c0a d6b6 8c51 58bd 8499 9dbd
000002e0: 85d8 2c15 5900 abbd 95d2 b415 f13f e13b
000002f0: 9fd9 b2bd 22ce 9615 96ca d295 524d 9aa7
00000300: cacb 8ebc 3275 15bc b9fd a9bd a04f 9014
00000310: 767b 7ebd 58a2 c814 8565 aa14 02ef 02bd
00000320: 50a6 d8a2 e766 e094 5dfb d93b b040 8abc
00000330: 1ac1 d930 2479 2415 fc68 d2b8 dcfb c2bd
00000340: fff0 e4bc 0f26 c6bb 0d43 fcbd f468 93bd
00000350: db3c cbbc 8bdd 5693 66f4 8abb 53b5 1ebd
00000360: b862 babc 7bfe 4115 f6ed 2d15 5ac0 34bd
00000370: b0db dbbc 7188 b8bd 4124 a3bd 14a9 d5bc
00000380: a407 293c bf94 5314 528a a3bd 730e d7bd
00000390: 1a63 9cbd aa94 8fbd 8214 4cbd 3307 4d92
000003a0: b927 8dbd 0c42 b2bd a696 6d94 6507 afbc
000003b0: 596c 08a8 50f5 76bd 21c3 93a7 861c 103b
000003c0: 79c9 b6bb 36a6 0ebb edd6 c739 cf9f f8bd
000003d0: 5a8b 6514 4b7c 2f3c fef8 0715 3e40 5bbd
000003e0: 646a 52bd b1d0 35bd fbdb 4bbd a755 e0bc
000003f0: 1008 06be ed7e ed94 d4eb f53b b41f 8ebc
-0.04054129 -4.412834e-26 -0.053823408 0.011794035 -0.1349378 -0.08135276 -0.101519816 -0.107938126
-0.021913283 0.004751281 -0.104007 -0.09947026 -0.059778363 0.004130552 -2.5377478e-06 -0.06141505
-0.0048657935 0.0393246 0.0066506043 -0.017274832 0.021103853 -1.721077e-26 0.032683343 -0.007289587
0.0027189406 -0.054209907 -0.08203172 0.01769789 0.031107446 -0.117698856 -0.018499972 0.00059954217
-0.065095015 0.015929962 -5.120715e-26 -0.020626895 -0.13206194 -0.05516096 0.014137152 -0.09993039
-0.015237978 -0.106771976 -0.038733147 -0.011274998 -0.030903282 -0.016538577 -0.16182975 0.001972672
-0.10471989 -0.061397325 -0.06130407 -0.076132104 0.03194346 -0.010186657 0.011874814 -0.17752536
-0.020080049 0.0013319019 0.034556203 -0.031037606 0.003968204 -0.03511322 0.0016679717 0.036508393
-0.036582697 -0.014020838 -0.09428762 -0.0072267656 0.08677034 0.02329299 -0.07588902 -0.086048
-0.0064164028 0.0014193573 -0.04268566 0.09402569 0.051030077 -0.011653185 -0.0017322734 -0.11941255
0.011127046 0.02178961 -0.1430558 0.010865644 -0.031244393 0.012526435 -0.10011371 -0.06897213
-0.06640387 7.1552924e-05 0.01287518 -0.08493701 0.070601694 0.024251528 -0.081109196 -0.026729893
-0.003741241 0.031616565 -0.06814701 0.00048852194 -0.22561973 -0.06006711 -0.017007222 0.008148048
-0.09630665 -0.09291446 -0.04608631 0.00066036975 0.04107247 -0.002858009 0.0315912 0.0030920783
0.046292167 -0.030708594 0.025804663 -0.097172625 -6.987173e-27 -0.014869899 0.020270929 -0.058484655
-0.004160642 -0.059194908 -0.020043993 -0.040016796 -0.049856063 0.0002802419 -0.024353852 -0.15595454
-0.103665 -3.2680776e-26 -0.013372277 -0.12363022 -0.035647985 -0.038087964 0.022517627 -0.05088123
-0.11140923 -0.10044438 -0.046968956 0.000729162 -0.042443246 -0.006907336 6.54692e-26 7.685917e-26
1.6354624e-26 -0.098217234 3.4934274e-26 -0.061007958 -0.013377291 -1.3718918e-26 0.0072821933 -0.035720266
-0.037075043 -0.035634942 -3.1389765e-27 -7.410433e-27 1.3832551e-26 -0.053918898 1.5266361e-26 5.7335065e-27
-0.0066342107 -0.04871673 1.5630707e-27 -0.049538333 -0.038489286 -0.11924844 -0.05707673 -0.07119663
-0.0029266523 -0.0610897 7.989451e-27 -0.012872286 -0.001219132 -0.013485975 -0.053837255 -2.2055207e-09
-0.011000181 -2.869164e-18 5.510356e-26 -0.037595578 -0.076805726 -6.3789103e-06 -0.052812144 -0.076952964
3.4905927e-26 -0.08349676 7.303366e-26 0.0068740775 -0.08732914 6.090974e-26 -8.513795e-26 -4.2827417e-15
-0.017431159 -0.00912218 -0.08300347 1.457169e-26 -0.06212946 2.0258872e-26 1.7205656e-26 -0.031966217
-5.8723008e-18 -2.2658808e-26 0.0066522793 -0.016876549 1.5843711e-09 3.32151e-26 -0.00010033135 -0.095206946
-0.027946947 -0.0060470174 -0.123174764 -0.071977526 -0.024809292 -2.7119827e-27 -0.0042405603 -0.038747143
-0.02275215 3.917679e-26 3.512479e-26 -0.044128753 -0.026838154 -0.09010399 -0.07965899 -0.0260816
0.010316763 1.0682113e-26 -0.07985367 -0.10500803 -0.076360896 -0.07010777 -0.049824245 -6.469547e-28
-0.06892342 -0.08704004 -1.1995152e-26 -0.02136583 -7.573011e-15 -0.060292542 -4.1012255e-15 0.0021989658
-0.0055782166 -0.002176655 0.0003811637 -0.12139856 1.1589028e-26 0.010710786 2.7459453e-26 -0.053528063
-0.051370993 -0.044388477 -0.049770337 -0.027384592 -0.13089013 -2.3980948e-26 0.0075049195 -0.017349102

net.6.bias f4 [112]
00000000: cf41 ed3d 8f09 803c f97c 80bd a181 063e
00000010: d736 a1bc bd30 d9bb c7a5 27b9 d7bb 70bd
00000020: 154a 67bd 0a51 97b7 359f 9abc 449a 133d
00000030: de1f 223d 0535 d13d 17db e83d 01db 983d
00000040: 7811 6d3d 04b9 abbd 12ec 9cbd 5fdd e03d
00000050: 85aa 2e3d f7a8 243c aa96 ca3d 76be 5e3a
00000060: 8e43 debd e98a 96bd d288 e8ba 7084 34bd
00000070: 750b b13d 887e 383d 899b 2b3e 8d15 66ba
00000080: 69a1 f03d d66d b23d f673 f03d c28d 0b3e
00000090: 3c96 9bbd 810f 0f3e 283e b7bd b819 e23d
000000a0: 6146 71bb d9ee 9dbc 7e54 abbd bb10 213e
000000b0: 862d d33a 81d8 fb3d 99a1 dbbc dabe bd3d
000000c0: d4df 75bc 6ff5 b8bd 4de9 31bd e0c0 143d
000000d0: da46 d53d a91d 183e afa4 ca3c 0daf 2c3e
000000e0: 1688 e43d 87ce 283e 21b6 24bd 2315 adbd
000000f0: 5e9a 38bd c989 f3bc 0175 51bd fbbb 333d
00000100: 46ca 9e3d 526b dbbc 7f20 22bd 6da8 df3d
00000110: 563a b03d 6043 083e d08d 383e 3634 073d
00000120: 2849 693b 4378 f93d f776 d0bd f16e 90bd
00000130: 6f96 cbbd cdac 363e be4d d93d 25ed 1c3e
00000140: 52d1 053e 6a56 b13d 091b 703c b368 2e3d
00000150: a7b8 85bd 6c9e 72bc 56a6 143e 5509 aebb
00000160: 84a5 99bd 0a13 5ebc 1f8c ab3d 4803 77bd
00000170: 00ed a6bc ea8a 0abd 6fb4 93bd 2a94 95bc
00000180: 36a9 013e f07b fd3d d463 fc3d db94 bf3d
00000190: c8cf 85bd fb20 47bd fc45 89bd cced 8abd
000001a0: 63a8 123d e522 a83d 7f71 d6bb 4b7f 2fbd
000001b0: 47e9 9c3d 9a68 edbb 2701 353d 62e5 3cbd
0.115848176 0.015629558 -0.06273837 0.13135387 -0.01967947 -0.0066281245 -0.00015988118 -0.058772888
-0.056467135 -1.803834e-05 -0.018874744 0.03603579 0.039581172 0.10215191 0.11369913 0.07463647
0.057877988 -0.08384898 -0.07662214 0.10979723 0.04264309 0.01005005 0.09892018 0.0008497009
-0.10852729 -0.07350714 -0.0017740971 -0.044071615 0.086447634 0.045042545 0.1675855 -0.0008777015
0.117495365 0.08712356 0.11740868 0.13628295 -0.07597014 0.13970758 -0.08947402 0.11040062
-0.003681563 -0.01927893 -0.08365725 0.15729038 0.001611159 0.12297154 -0.026810454 0.09264918
-0.015006978 -0.09031188 -0.043435384 0.036316752 0.104139045 0.14855064 0.02473673 0.16863652
0.11158769 0.16485034 -0.040212754 -0.08451297 -0.04506909 -0.029728787 -0.051136974 0.043880444
0.07753424 -0.026784573 -0.039581772 0.109207965 0.08604877 0.13306952 0.18022847 0.033008777
0.0035596583 0.12181141 -0.10178941 -0.070524104 -0.09940802 0.17839356 0.10610531 0.15324838
0.1306813 0.0865906 0.014654883 0.042580318 -0.0652936 -0.0148082785 0.14516577 -0.005311171
-0.07502273 -0.013554344 0.08376335 -0.060305864 -0.020376682 -0.033823885 -0.07212149 -0.018259127
0.12662205 0.12377155 0.12323728 0.09354564 -0.06533772 -0.048615437 -0.067028016 -0.067836374
0.035805117 0.082097806 -0.0065442915 -0.042846005 0.076616816 -0.0072451355 0.044190552 -0.046117194

net.9.weight f4 [1, 112]
00000000: 9e2f f6bd 1a2a 02bc 71b1 29bd b91c e5bd
00000010: 9b60 27ba eb06 d8bb 9282 7dbd c588 053b
00000020: ec75 8c3c d6d7 27bb 3b46 c1bc 6d58 3b3d
00000030: eb1b 2e3d 6bda 853d fa69 563d 6f32 883d
00000040: 8380 fa3c d500 49bc de58 3bbc 2c5c 683d
00000050: 2e73 9d3c 366c 9e3b 4910 a03d 74a4 43bd
00000060: 1af9 6b3a ab88 fdbc cdcf 863d e6ca 10bc
00000070: c7e2 90bd 67b3 673d 8399 433d 4f91 8ab9
00000080: 0b83 febd 4a92 3b3d ec9c 7d3d 6a46 23be
00000090: 74bf 85bd cb1d 5e3d abdc e8bb a8bd b8bd
000000a0: 6e48 ae26 d5e5 c6bc d9ab 133b 7d8a 2d3d
000000b0: c7eb 28bd d8b1 823d 6416 573c 32d7 8b3d
000000c0: 4a28 41bd bc4b 4abd a151 d3bc e7ce 6a3d
000000d0: 0343 8a3d 6c6a d83c cf71 1b3d 81c8 363d
000000e0: 3ff9 a73d 739d 763d cabe 26bc d224 343d
000000f0: 7ad0 a5b8 0417 a1bd 88b4 4cbd dcd8 0dbd
00000100: dd42 b03d 037c c9bb 174b cbba a83f 733d
00000110: 5349 00be 0258 6b3d 2fd5 533d 8540 753b
00000120: 80a9 ae3b 29cd 1cbe 9198 27bd 70ce 253c
00000130: 2cb9 edbb e8c7 893d a773 3f3d 3351 473d
00000140: a15f 1f3d 2cfb 423d 0d4d 67bd 7827 8ebd
00000150: cece 62bd 55fb 2fbc 189f be3d 6192 3ebc
00000160: 04a3 7ebd c7a6 80ba aa59 963d d92e 3fbc
00000170: b0a4 7cbb 9c70 adbb 2441 70bd 325b 603c
00000180: 9fdb 813d f228 0fbe 1f3a 143d 2888 563d
00000190: 3053 e73b 80b7 19bd adc2 1e3c 0d42 d7ba
000001a0: 82b0 3c3d d17a febc 37ad 543c adc5 ecbb
000001b0: 6283 9b3d 33af 8f3c 4999 923d 07bc 5cbd
-0.12020801 -0.007944608 -0.041428987 -0.11187119 -0.000638494 -0.0065926216 -0.0618921 0.002037571
0.017146073 -0.0025610826 -0.023593059 0.045738626 0.042507093 0.065358005 0.05234716 0.066502444
0.030578857 -0.012268265 -0.011434762 0.056728527 0.019219961 0.004834677 0.07815606 -0.047764257
0.00090016576 -0.030948957 0.065826036 -0.008837437 -0.07074504 0.056567576 0.047753822 -0.00026429674
-0.12427338 0.04579381 0.06191723 -0.1594483 -0.065306574 0.05422763 -0.007106384 -0.09020549
1.2093307e-15 -0.024279514 0.002253285 0.0423684 -0.04124048 0.06381577 0.013127897 0.068281546
-0.047157563 -0.049388632 -0.02579576 0.057326224 0.06751063 0.026417933 0.037950333 0.04462481
0.08201837 0.06020875 -0.010177324 0.043980427 -7.906645e-05 -0.07865718 -0.049976856 -0.03463064
0.08606503 -0.0061488166 -0.0015510049 0.05938688 -0.12527971 0.057456978 0.05171698 0.003742249
0.0053302646 -0.15312637 -0.040916983 0.010120019 -0.00725474 0.06727582 0.046741154 0.048661422
0.03890956 0.047602817 -0.056469966 -0.06941122 -0.055373006 -0.010741075 0.093076885 -0.011631579
-0.062167183 -0.0009815329 0.07341321 -0.011668884 -0.003855031 -0.005292965 -0.058655873 0.013693618
0.063407175 -0.13980463 0.03618824 0.052375942 0.0070594773 -0.037528515 0.009689969 -0.0016422883
0.04606677 -0.031064423 0.012980751 -0.007225713 0.07593419 0.017539596 0.07158143 -0.053890254
